trained_model.pth (torch, 167876 bytes, 5 tensors)

lstm1.weight_ih_l0 f4 [400, 1]
0.19904535 -0.2235279 0.06065252 0.60647887 -0.09783136 0.32585412 0.092001915 0.1890385
0.030126749 0.16939184 0.2636828 0.37246415 0.017866839 0.21276002 -0.033290174 0.036064006
-0.0047295387 -0.15947945 0.10284726 -0.03793771 -0.11338778 0.28399915 -0.0929769 -0.11584349
0.148461 0.039978165 0.18066338 0.51645166 -0.06781618 0.46574482 -0.25187168 0.13327797
0.21917957 0.43335208 0.008066593 -0.037118208 0.1254386 0.27089542 0.11913139 0.1243004
0.47763246 0.012349922 0.79649824 -0.14458834 0.46554482 0.2159889 0.16283053 -0.012892328
-0.20255004 0.03496024 0.44274724 -0.089827955 0.16872437 0.3432889 0.0167247 0.9331203
-0.20704149 0.4447063 -0.054007422 0.08278787 0.29714552 0.20934868 0.009427685 0.12255385
0.5973909 -0.049040366 0.26295012 0.53786 -0.15311988 -0.06556643 -0.009434038 0.18258473
0.34229133 0.033403814 -0.26832974 -0.17921948 0.25763273 0.13791849 0.23843758 0.46858796
-0.036461785 0.1866929 -0.23221256 -0.054704104 -0.09484807 -0.023779187 -0.10715125 0.05315785
-0.1676058 0.4211834 -0.193563 -0.11276257 -0.19468938 0.3489733 -0.15031756 -0.06779833
-0.19560498 0.020116644 0.17448477 -0.0697667 0.24698703 0.6869969 0.055870906 0.7488043
0.6498425 0.45237172 0.19166556 -0.07995084 -0.06953111 0.053788345 0.12663907 -0.11913197
0.1466481 0.6304193 0.017287038 0.049770337 -0.22016062 0.17591836 0.27360997 -0.028602924
-0.059493348 -0.2012117 0.43200916 0.31209007 0.08465165 -0.005043785 0.11776808 -0.054099098
0.06765151 0.04973433 0.6762902 0.03139952 0.26431242 0.10215174 -0.030488225 0.10040024
0.13891575 -0.080381945 0.1319996 0.03453751 0.2085011 -0.13081843 0.47176594 0.2140617
0.066937 -0.04958454 -0.014209817 -0.25152284 -0.118841186 0.02161044 0.31330073 -0.024354575
-0.12266621 -0.07171226 0.09193375 0.31816396 -0.12537326 0.46446362 0.023920273 0.08156816
0.022974627 0.13152158 -0.02853254 0.030894669 0.55804604 0.18246667 -0.0624587 0.26397863
-0.13919874 -0.2952211 -0.061486762 -0.009711609 0.07611427 -0.0222699 0.5275984 0.49654987
0.046089645 0.20494986 0.26298544 0.33312827 0.020841504 0.18716805 0.1558015 -0.0043359026
0.043095607 -0.023736184 0.03382161 -0.009136076 -0.041328777 0.20090091 0.742898 -0.052319285
-0.17752941 0.08306738 0.3727083 0.018160712 0.36918387 -0.057553858 0.28877848 0.043318015
-0.106685534 -0.13058911 0.041041777 -0.4591225 -0.09807668 0.277188 0.18482873 -0.029291362
0.07347647 0.11228784 0.21450709 -0.024390021 0.11169717 0.15236534 0.103200234 -0.057413355
0.045215487 0.12508903 0.12050471 -0.07948325 0.0120791225 -0.012257105 0.028655991 -0.16306838
0.11263529 -0.016764259 0.028591849 -0.080653235 -0.035386343 0.071843825 0.07069901 0.12583902
0.1705145 -0.35051495 0.041897833 -0.010264652 0.027313946 0.10674385 0.005838892 -0.076194435
0.30196795 0.11929547 -0.4809006 0.048584376 -0.19232453 -0.10268209 0.06064234 0.026214305
0.12225725 0.07174846 -0.43861198 -0.007640438 0.08827686 0.16317464 -0.033695314 -0.32005727
00000000: 8bd2 4b3e 7fe4 64be c76e 783d 3342 1b3f
00000010: cf5b c8bd 5ad6 a63e 806b bc3d 4f93 413e
00000020: 5fcc f63c 0e75 2d3e 6f01 873e 9fb3 be3e
00000030: 7a5d 923c c3dd 593e 475b 08bd dab7 133d
00000040: 3ffa 9abb 954e 23be 96a1 d23d 9264 1bbd
00000050: da37 e8bd 5668 913e ac6a bebd 5a3f edbd
00000060: 2906 183e 25c0 233d d2ff 383e 2d36 043f
00000070: 36e3 8abd 1b76 ee3e 53f5 80be 057a 083e
00000080: 9c70 603e 53e0 dd3e be29 043c 4309 18bd
00000090: fa72 003e ceb2 8a3e 28fb f33d 3591 fe3d
000000a0: 3e8c f43e 5457 4a3c 4fe7 4b3f f70e 14be
000000b0: e45b ee3e 322c 5d3e 0cbd 263e 583a 53bc
000000c0: 4769 4fbe 7832 0f3d c4af e23e b8f7 b7bd
000000d0: 15c6 2c3e 90c3 af3e 3d02 893c f9e0 6e3f
000000e0: af02 54be 8bb0 e33e e336 5dbd b08c a93d
000000f0: 7523 983e 805f 563e 9476 1a3c 83fd fa3d
00000100: 9cee 183f 8dde 48bd 66a1 863e 31b1 093f
00000110: 75cb 1cbe b147 86bd 3991 1abc 7ef7 3a3e
00000120: cf40 af3e 70d2 083d 8462 89be 5085 37be
00000130: 70e8 833e 813a 0d3e fb28 743e c3ea ef3e
00000140: f458 15bd 6c2c 3f3e 21c9 6dbe 6911 60bd
00000150: b43f c2bd 92cc c2bc 1d72 dbbd 0cbc 593d
00000160: dba0 2bbe 5aa5 d73e 6135 46be 10f0 e6bd
00000170: a75c 47be a1ac b23e d9ec 19be dad9 8abd
00000180: ac4c 48be a9cb a43c 23ac 323e d8e1 8ebd
00000190: 2bea 7c3e 07df 2f3f e4d8 643d a3b1 3f3f
000001a0: 145c 263f 449d e73e fa43 443e 44bd a3bd
000001b0: 5466 8ebd 2b51 5c3d acad 013e 76fb f3bd
000001c0: eb2a 163e 2963 213f 8c9d 8d3c fbdb 4b3d
000001d0: c971 61be f123 343e 9b16 8c3e ae50 eabc
000001e0: 4caf 73bd 710a 4ebe 4e30 dd3e 45ca 9f3e
000001f0: d85d ad3d 5646 a5bb 6430 f13d 0497 5dbd
00000200: e08c 8a3d 3ab6 4b3d 5b21 2d3f c89c 003d
00000210: f553 873e ee34 d13d 71c2 f9bc a49e cd3d
00000220: ee3f 0e3e 4a9f a4bd e72a 073e 3477 0d3d
00000230: 5081 553e 44f5 05be 4e8b f13e fe32 5b3e
00000240: 4416 893d 2919 4bbd 4bd0 68bc 9ac7 80be
00000250: 0263 f3bd 6108 b13c f468 a03e 3f83 c7bc
00000260: 6c38 fbbd e1dd 92bd c347 bc3d 63e6 a23e
00000270: d961 00be 2dce ed3e 73f4 c33c 350d a73d
00000280: 4935 bc3c 98ad 063e 13bd e9bc d116 fd3c
00000290: 1bdc 0e3f 8bd8 3a3e b2d4 7fbd 3528 873e
000002a0: 1d8a 0ebe 3827 97be 8bd9 7bbd 711d 1fbc
000002b0: cce1 9b3d 5e6f b6bc b010 073f c93b fe3e
000002c0: 7fc8 3c3d 60de 513e 07a6 863e ca8f aa3e
000002d0: cdbb aa3c fba8 3f3e 6e8a 1f3e 3014 8ebb
000002e0: 0585 303d 6372 c2bc 8788 0a3d 7baf 15bc
000002f0: 5d48 29bd f8b8 4d3e 902e 3e3f bf4c 56bd
00000300: 45ca 35be 3b1f aa3d 9fd3 be3e c6c5 943c
00000310: ab05 bd3e 98bd 6bbd c6da 933e 3b6e 313d
00000320: f27d dabd 27b9 05be 6c1b 283d 1b12 ebbe
00000330: 6ddc c8bd 96eb 8d3e be43 3d3e 70f4 efbc
00000340: d57a 963d 2bf7 e53d bfa7 5b3e 95cd c7bc
00000350: 7cc1 e43d a905 1c3e a55a d33d 442a 6bbd
00000360: e033 393d 5717 003e 2ccb f63d 1dc8 a2bd
00000370: 83e7 453c 06d2 48bc f8bf ea3c 66fb 26be
00000380: 55ad e63d 3355 89bc 7439 ea3c 862d a5bd
00000390: 45f1 10bd db22 933d a4ca 903d f2db 003e
000003a0: 5a9b 2e3e b276 b3be 109d 2b3d 122d 28bc
000003b0: 7fc1 df3c 859c da3d 2d54 bf3b d40b 9cbd
000003c0: 8b9b 9a3e 2f51 f43d 9a38 f6be 6900 473d
000003d0: b9f0 44be fd4a d2bd 1a64 783d 62bf d63c
000003e0: 0262 fa3d dbf0 923d c091 e0be a45c fabb
000003f0: 80ca b43d 4117 273e 1904 0abd 8cde a3be

lstm1.weight_hh_l0 f4 [400, 100]
0.27676252 0.10701847 -0.10655005 0.10227017 0.08830298 0.007836719 -0.20452465 -0.18150729
0.1691039 -0.2142543 -0.36740667 0.07325238 0.09718257 -0.085630886 -0.22005084 0.01525647
-0.21471399 -0.24394903 0.2821661 -0.20457225 -0.32822904 0.081835754 -0.06927946 0.14624712
0.099830754 0.10348036 -0.18840943 0.10857778 -0.019051638 -0.13333817 -0.06235703 0.12159636
0.027095692 -0.024209749 -0.25855246 -0.01578 0.093788 0.11328184 0.048297532 0.02936261
-0.043248285 0.042008072 0.0426766 0.09497628 -0.12292798 0.050087176 -0.19739339 -0.009377525
-0.20079231 0.084802896 0.09448821 -0.13409176 0.20236959 0.026723117 0.065277874 0.05773615
-0.07109248 -0.20322073 0.18180297 -0.20350137 -0.1726704 0.22948205 0.027828017 0.35088676
0.059380315 -0.01412267 -0.014324526 -0.16423675 -0.048114724 -0.26614487 0.14254604 -0.21555899
0.038146686 0.27573797 0.123881385 0.16470906 -0.032990687 -0.29499468 -0.060016673 -0.003130793
0.22150055 0.029384486 -0.241805 -0.039963666 0.0012582543 0.099962585 0.16007742 0.08235636
-0.22929431 0.24112849 -0.17217475 -0.22991112 0.10097679 0.068437986 0.21346222 -0.05643253
0.045977928 -0.16185386 0.115538575 0.010527529 -0.21289921 0.06647345 0.038634166 0.3256429
0.19554842 -0.13455786 0.15604076 -0.02249879 -0.11866447 0.049109194 0.16363807 -0.0045753773
0.099670984 0.078465186 0.1316095 0.43988493 0.18721868 0.108230636 -0.041699637 -0.09250625
-0.009091634 0.25979772 -0.12737694 0.26994625 -0.023060955 -0.08526395 -0.18398991 0.07402413
0.097563274 0.039336823 -0.15070577 -0.024225831 -0.56547505 0.0015568202 0.09100337 0.046366457
0.052181717 -0.069696285 0.24657467 0.10069012 -0.15946178 0.027922673 0.06768762 0.112245046
-0.04697014 -0.07158373 -0.093792185 -0.13776425 0.021742446 -0.22184904 0.16725965 -0.022641916
0.037038065 -0.010773877 -0.015185418 0.021688491 0.23994821 0.20444934 0.24221231 0.04907212
0.1421868 -0.053732842 0.07530243 0.017515015 -0.08350405 0.097692855 0.17252621 0.029145958
0.009285478 -0.058840737 0.03205026 -0.019182326 0.026087321 -0.14662097 -0.29519618 -0.02688431
-0.11902148 0.034611866 -0.068156205 0.030990519 -0.07980387 0.31764942 0.119979866 -0.34857368
0.011656731 -0.056240004 -0.019972442 -0.0038760905 -0.09423657 0.19645137 -0.35036933 0.09141039
-0.029119689 -0.16355117 0.13811535 0.0307163 0.16588975 0.020410651 0.02804114 0.117059745
0.14239065 0.67724895 -0.3360771 0.15399598 0.7042465 0.06413504 -0.103102416 -0.014116335
-0.066827156 -0.20063286 -0.28489995 0.13344459 -0.054378323 -0.1983082 -0.0863385 0.0036686556
0.0034482458 -0.36027226 0.27562237 -0.00694237 -0.08002145 0.029548494 -0.47096795 0.23527768
-0.006732467 0.21255986 -0.07537774 -0.06221643 0.05554037 -0.10322684 -0.46177098 0.040302936
-0.011801539 0.052452426 -0.017877826 -0.13241859 0.21173632 -0.19475754 -0.14842361 0.12797813
-0.1900512 -0.0048253434 0.31788227 -0.022101037 0.12530965 -0.02795945 -0.12158248 -0.2099228
-0.18890901 -0.114195466 0.0061418707 0.22089761 0.31082052 -0.032326285 0.01156032 0.04759426
00000000: d1b3 8d3e 802c db3d ea36 dabd 0673 d13d
00000010: 31d8 b43d 9565 003c e96e 51be 0cdd 39be
00000020: 9329 2d3e 7b65 5bbe ba1c bcbe 5805 963d
00000030: a807 c73d 3f5f afbd 0255 61be 46f6 793c
00000040: fcdd 5bbe c6cd 79be 1378 903e 637b 51be
00000050: a30d a8be 8199 a73d 64e2 8dbd cec1 153e
00000060: 1174 cc3d 83ed d33d 67ee 40be 075e de3d
00000070: 2e12 9cbc cd89 08be 166a 7fbd 8307 f93d
00000080: c9f7 dd3c 8653 c6bc fd60 84be 0f45 81bc
00000090: ec13 c03d 4f00 e83d a2d3 453d db89 f03c
000000a0: 1d25 31bd a810 2c3d a9cd 2e3d ed82 c23d
000000b0: aac1 fbbd 3628 4d3d 7e21 4abe 31a4 19bc
000000c0: 809c 4dbe 24ad ad3d 0983 c13d 5a4f 09be
000000d0: f939 4f3e 70ea da3c 68b0 853d be7c 6c3d
000000e0: ef98 91bd 1819 50be 8f2a 3a3e aa62 50be
000000f0: 82d0 30be 58fd 6a3e 95f7 e33c 6ea7 b33e
00000100: c638 733d c562 67bc 6bb1 6abc ae2d 28be
00000110: f213 45bd 2444 88be 97f7 113e 7fbb 5cbe
00000120: b33f 1c3d 872d 8d3e 86b5 fd3d 7ea9 283e
00000130: 3e21 07bd 8b09 97be 0bd4 75bd fe2d 4dbb
00000140: 0ad1 623e bcb7 f03c bb9b 77be f1b0 23bd
00000150: 02ec a43a 2fb9 cc3d 56eb 233e 74aa a83d
00000160: 21cc 6abe 63ea 763e 944e 30be d26d 6bbe
00000170: ebcc ce3d 3729 8c3d d795 5a3e cc25 67bd
00000180: 5a53 3c3d 05bd 25be 7d9f ec3d a87b 2c3c
00000190: 4002 5abe 3b23 883d dc3e 1e3d abba a63e
000001a0: d83d 483e 89c9 09be 26c9 1f3e 624f b8bc
000001b0: 5c06 f3bd b926 493d bd90 273e 0ced 95bb
000001c0: 4d20 cc3d 5bb2 a03d a4c4 063e 9938 e13e
000001d0: 41b6 3f3e 06a8 dd3d 3dcd 2abd eb73 bdbd
000001e0: 14f5 14bc 3504 853e 1a6f 02be 6536 8a3e
000001f0: 54ea bcbc de9e aebd da67 3cbe f799 973d
00000200: 41cf c73d a61f 213d 9d52 1abe 4075 c6bc
00000210: f9c2 10bf 380e cc3a fa5f ba3d c1ea 3d3d
00000220: 7fbc 553d edbc 8ebd 127e 7c3e 9f36 ce3d
00000230: f349 23be 17be e43c cf9f 8a3d bbe0 e53d
00000240: c363 40bd 7e9a 92bd 1e16 c0bd 1212 0dbe
00000250: 371d b23c 652c 63be 1d46 2b3e 8a7b b9bc
00000260: 3ab5 173d ea84 30bc 42cc 78bc 10ac b13c
00000270: fcb4 753e 2b5b 513e 8106 783e d9ff 483d
00000280: 6b99 113e f816 5cbd 2938 9a3d a67b 8f3c
00000290: 2c04 abbd 3113 c83d b6aa 303e 81c3 ee3c
000002a0: 1e22 183c fc02 71bd 2247 033d 4124 9dbc
000002b0: 14b5 d53c cf23 16be f423 97be 7c3c dcbc
000002c0: 89c1 f3bd 2cc5 0d3d 7b95 8bbd d4df fd3c
000002d0: 3670 a3bd f2a2 a23e 01b8 f53d 4078 b2be
000002e0: e0fb 3e3c eb5b 66bd 3f9d a3bc 0206 7ebb
000002f0: 1aff c0bd 8c2a 493e 9c63 b3be 5f35 bb3d
00000300: 6a8c eebc f579 27be 1c6e 0d3e c0a0 fb3c
00000310: 01df 293e 3d34 a73c 88b6 e53c 05bd ef3d
00000320: dbce 113e 3060 2d3f 4c12 acbe 1fb1 1d3e
00000330: 8049 343f 3b59 833d 5c27 d3bd 3348 67bc
00000340: addc 88bd b372 4dbe 68de 91be b3a5 083e
00000350: cebb 5ebd 4e11 4bbe 3dd2 b0bd d46d 703b
00000360: f7fb 613b 9b75 b8be 601e 8d3e d27c e3bb
00000370: 49e2 a3bd af0f f23c b622 f1be a2ec 703e
00000380: 079c dcbb 4ba9 593e a55f 9abd a8d6 7ebd
00000390: 4d7e 633d 9868 d3bd 3f6d ecbe b114 253d
000003a0: 3e5b 41bc 5bd8 563d 8574 92bc bd98 07be
000003b0: 68d1 583e 856e 47be 5cfc 17be b30c 033e
000003c0: c89c 42be ea1d 9ebb 77c1 a23e 3c0d b5bc
000003d0: 2c51 003e 370b e5bc 3c00 f9bd 01f6 56be
000003e0: 5d71 41be 50df e9bd bf41 c93b fc32 623e
000003f0: de23 9f3e 9168 04bd 7f67 3d3c 33f2 423d

lstm1.bias_ih_l0 f4 [400]
0.0061664977 0.012082956 -0.0298208 0.5116282 0.07525601 0.26268923 -0.2070312 0.1378825
-0.005980178 -0.056296095 -0.00055889046 0.26232815 -0.11457511 0.19698657 -0.1962173 -0.08193183
-0.16056618 -0.0964893 0.12585767 -0.19958773 -0.397015 0.2646676 0.022180585 -0.18625422
0.02381145 -0.19920722 0.17085975 0.5262643 -0.21895657 0.27116087 0.05248443 0.036616992
0.058651008 0.3205934 -0.088598505 -0.23262754 -0.0078863595 0.041638047 -0.101652764 0.22243859
0.49865758 0.042686466 0.97474587 -0.095659085 0.26635957 0.13062559 -0.09885447 -0.17422587
-0.13975787 -0.06753478 0.4129806 -0.085949734 0.07490778 0.29469416 -0.25132313 0.86560595
-0.11796762 0.41686615 -0.13194607 0.21008146 0.029798882 0.07123311 -0.028213331 -0.10455308
0.60932916 0.07338318 0.09382262 0.5970956 -0.13292633 0.13524763 0.12770164 0.022674784
0.2886478 -0.14090277 -0.0033062608 0.041273262 -0.03044425 0.011085759 0.12968238 0.3806846
-0.2652109 0.11818859 -0.15669928 0.20491771 -0.113537915 -0.025694305 -0.25380713 -0.07055899
0.102842875 0.4356638 0.027147654 -0.07939299 -0.12777992 0.18928424 0.10226818 -0.014613325
-0.021537937 -0.017254584 0.08616661 -0.16321397 0.0818442 0.49048 -0.047131862 0.530025
0.6560516 0.3661021 0.072581686 -0.057872146 -0.13008404 0.07275252 0.07097661 -0.1153467
0.2368476 0.5292448 0.048647143 0.07779304 -0.32124484 0.18880327 0.44585812 0.20583071
-0.16246401 -0.03334166 0.24518275 0.10073481 0.0018120852 -0.014787627 0.05762077 -0.08044002
0.018259177 0.059260376 0.6980473 -0.04568923 0.09965609 0.48090366 -0.08973119 0.08088057
0.06799075 0.048697203 0.21205378 -0.079165466 0.1632629 -0.27735424 0.37337756 0.18511581
0.11910663 -0.04895636 -0.053014904 -0.14575456 0.073527135 0.09871686 0.29590625 0.036039475
-0.29407278 -0.112591736 -0.066996284 0.04394407 -0.10792459 0.30544794 -0.08396502 0.1232717
0.09035386 -0.052855015 0.049857844 0.22120656 0.5460698 0.19635148 0.06980891 0.25978222
-0.19206202 -0.31958154 0.014551232 0.020861309 0.00297494 -0.021433841 0.49494368 0.464854
-0.04644933 0.116603434 0.34963188 0.08176679 -0.045573685 0.029752951 0.17915452 -0.05689981
0.042901345 -0.01854703 0.073657185 0.07743713 0.18930022 0.101653896 0.6956144 0.052030765
-0.14869817 0.080994494 0.25106758 0.1095143 0.21176443 -0.13037954 0.14386179 0.0990833
-0.24973986 -0.24175353 0.2572999 -0.50257564 -0.3383954 0.13895409 0.18804473 0.16847128
0.15627529 0.32916042 0.40978158 -0.2595986 0.035011157 0.0974068 0.43315732 0.02665682
0.2832738 0.026451655 0.025483776 0.057097502 0.0038809204 -0.083691776 0.2807903 0.06826859
0.028206777 -0.1070567 0.15161134 0.1599868 0.12661234 -0.04255638 0.21099629 0.25234973
-0.14239414 -0.28649476 0.33203202 -0.08334236 0.11712734 -0.01441372 0.07649997 0.0921163
0.28345975 0.30403286 -0.36622074 -0.13735959 -0.06153832 -0.026713695 0.264767 0.32875016
0.31454268 -0.015809374 -0.4781008 0.015947253 -0.26836663 -0.014757664 -0.2796984 -0.23946008
00000000: 5510 ca3b 97f7 453c c04a f4bc 11fa 023f
00000010: d31f 9a3d 347f 863e fdff 53be 1231 0d3e
00000020: 5ef5 c3bb bc96 66bd 8182 12ba e04f 863e
00000030: 5ba6 eabd d9b6 493e 30ed 48be e0cb a7bd
00000040: 766b 24be 2f9c c5bd d5e0 003e ba60 4cbe
00000050: 8d45 cbbe 8382 873e 0fb4 b53c 6db9 3ebe
00000060: 3b10 c33c fafc 4bbe dcf5 2e3e 42b9 063f
00000070: 2736 60be 99d5 8a3e eaf9 563d b3fb 153d
00000080: 0a3c 703d d124 a43e 2273 b5bd ea35 6ebe
00000090: ca35 01bc a88c 2a3d 532f d0bd f1c6 633e
000000a0: 0c50 ff3e 01d8 2e3d f288 793f e9e8 c3bd
000000b0: 4860 883e b7c2 053e 3674 cabd 4468 32be
000000c0: b01c 0fbe ad4f 8abd 3172 d33e 6a06 b0bd
000000d0: 4069 993d 27e2 963e 6dad 80be 5a98 5d3f
000000e0: 0299 f1bd 7b6f d53e df1c 07be 981f 573e
000000f0: c91c f43c aae2 913d a51f e7bc ed1f d6bd
00000100: fffc 1b3f ec49 963d 1326 c03d 42db 183f
00000110: d71d 08be 5b7e 0a3e 38c4 023e 78c0 b93c
00000120: a5c9 933e d148 10be daad 58bb 270e 293d
00000130: 3866 f9bc 0ba1 353c 75cb 043e 18e9 c23e
00000140: b9c9 87be dc0c f23d c775 20be f3d5 513e
00000150: 9186 e8bd dd7c d2bc 02f3 81be 3b81 90bd
00000160: 499f d23d 530f df3e c264 de3c cb98 a2bd
00000170: bdd8 02be bad3 413e fb71 d13d ba6c 6fbc
00000180: 5470 b0bc 7c59 8dbc 1f78 b03d 9021 27be
00000190: ef9d a73d 3220 fb3e 570d 41bd b8af 073f
000001a0: fff2 273f bc71 bb3e b5a5 943d 580b 6dbd
000001b0: c034 05be 46ff 943d 2f5c 913d e43a ecbd
000001c0: 2d88 723e 967c 073f 3a42 473d f551 9f3d
000001d0: 347a a4be a555 413e 8447 e43e 49c5 523e
000001e0: f75c 26be 4491 08bd 3011 7b3e 0d4e ce3d
000001f0: 7d83 ed3a ce47 72bc c203 6c3d bdbd a4bd
00000200: 4594 953c 02bb 723d 3ab3 323f a124 3bbd
00000210: 7e18 cc3d 0139 f63e fcc4 b7bd b6a4 a53d
00000220: bc3e 8b3d b876 473d a024 593e 8121 a2bd
00000230: 642e 273e 6001 8ebe 582b bf3e 008f 3d3e
00000240: 2dee f33d 7786 48bd 2826 59bd af40 15be
00000250: 6595 963d 112c ca3d 0681 973e 219e 133d
00000260: b590 96be 7f96 e6bd 5935 89bd b2fe 333d
00000270: 9107 ddbd ac63 9c3e daf5 abbd e075 fc3d
00000280: 720b b93d 807e 58bd bd37 4c3d f983 623e
00000290: 3bcb 0b3f 5d10 493e f9f7 8e3d 2d02 853e
000002a0: e8ab 44be 31a0 a3be 4a68 6e3c 56e5 aa3c
000002b0: 36f7 423b 0696 afbc 4269 fd3e 5801 ee3e
000002c0: a741 3ebd c8cd ee3d f302 b33e 5975 a73d
000002d0: 79ab 3abd 76bc f33c 4874 373e c60f 69bd
000002e0: 52b9 2f3d f1ef 97bc 94d9 963d 5c97 9e3d
000002f0: ebd7 413e eb2f d03d c913 323f 361e 553d
00000300: 5544 18be 71e0 a53d ee8b 803e 0949 e03d
00000310: c6d8 583e 3782 05be 8150 133e 2fec ca3d
00000320: cebb 7fbe 3d8e 77be d0bc 833e cca8 00bf
00000330: 2942 adbe fb49 0e3e cc8e 403e bc83 2c3e
00000340: a106 203e b787 a83e e4ce d13e 1cea 84be
00000350: dc67 0f3d 377d c73d ccc6 dd3e 675f da3c
00000360: 4309 913e 24b1 d83c 5ac3 d03c 12df 693d
00000370: 0a57 7e3b 9866 abbd bfc3 8f3e 67d0 8b3d
00000380: e611 e73c 8b40 dbbd 0140 1b3e 94d3 233e
00000390: aaa6 013e 994f 2ebd 690f 583e fc33 813e
000003a0: c5cf 11be 71af 92be 1a00 aa3e 66af aabd
000003b0: 75e0 ef3d 8627 6cbc 04ac 9c3d 78a7 bc3d
000003c0: a321 913e 32aa 9b3e 4981 bbbe fea7 0cbe
000003d0: 9b0f 7cbd aed6 dabc 8a8f 873e f151 a83e
000003e0: bd0b a13e a982 81bc a1c9 f4be d0a3 823c
000003f0: 5a67 89be 21ca 71bc a134 8fbe 0635 75be

lstm1.bias_hh_l0 f4 [400]
-0.15082578 -0.003808281 -0.10256569 0.45935556 0.12217591 0.2654174 -0.3026067 0.17456084
-0.031623967 -0.022095088 0.06999807 0.3095473 0.011318771 0.18266155 -0.25718194 0.034331545
-0.26584274 0.051062588 0.05092982 -0.16453728 -0.31656882 0.1407925 0.13032493 -0.16976444
-0.008868928 -0.1310244 0.035742644 0.5977975 -0.324897 0.4220232 -0.109746926 -0.10873015
0.03447891 0.37285915 -0.05617635 -0.16857705 -0.07501922 0.09103269 -0.19641733 0.1263807
0.56399244 -0.13206816 0.9731556 -0.010718436 0.22961915 0.09693088 0.006626106 -0.18055621
-0.114543214 0.051994964 0.5810675 -0.16179891 0.118289754 0.45971736 -0.28188646 0.73354936
-0.0196607 0.33816913 -0.087008394 0.12995946 0.01852982 0.10713017 -0.077455826 0.068025745
0.61221886 -0.08667718 0.061116207 0.6444864 -0.12446542 0.12529635 0.14436823 -0.11149579
0.23149966 -0.1606566 0.01168178 0.07318451 0.001521738 0.03279941 0.11647314 0.48677722
-0.11543661 -0.047927164 -0.23071392 0.037500825 -0.12957929 -0.1512629 -0.40706518 -0.07048478
0.098160915 0.24800093 -0.034551125 0.014000291 -0.13277765 0.26709712 0.084343754 -0.023544978
-0.088676915 0.005146975 0.031893704 -0.17294636 0.105375364 0.46533114 0.11203453 0.3901887
0.51188654 0.341785 0.046544123 -0.043062538 -0.051759064 0.11411999 -0.057707585 -0.1255742
0.14930314 0.48148844 0.12453768 -0.061273657 -0.29068154 0.19879656 0.28708923 0.18972136
-0.12928224 -0.049083263 0.3102483 0.13882081 -0.10075953 0.013413606 0.088424645 0.031011144
0.08022855 0.004342022 0.7385794 -0.1840543 0.06480229 0.37427858 -0.14518172 -0.020153835
0.09817375 -0.0020311964 0.046412203 0.034171302 0.1204601 -0.32198295 0.46763664 0.26612794
0.03892329 -0.16337974 -0.117385775 -0.11769246 -0.09654826 0.038790513 0.2924037 0.034626476
-0.23979898 -0.007639002 -0.025451781 0.027333066 -0.15253797 0.3660487 0.011807322 0.20719668
0.02673139 0.0027726085 0.057092763 0.15465923 0.48025718 0.070418574 0.21474168 0.2600613
-0.085622 -0.20189244 -0.012304021 -0.06478631 0.06929915 -0.01937188 0.53950226 0.43490258
-0.08157545 0.13128658 0.30718145 0.25617167 -0.086079 0.104439534 0.17964351 -0.03853361
0.09413879 0.021989608 -0.06650157 0.05268076 0.20547505 0.24502416 0.6711094 0.12095255
-0.21740235 0.08967718 0.20772155 0.011962898 0.33900377 -0.17266364 0.15944715 0.035618793
-0.3636812 -0.24143176 0.27597135 -0.37259278 -0.34133938 0.013684841 0.35567737 0.14026597
0.21446781 0.39706013 0.419946 -0.30495661 -0.11281612 0.10931382 0.43174827 -0.08139362
0.23854981 0.10119229 -0.056246605 0.10392463 0.17532392 -0.22200103 0.36800608 0.05801456
-0.113184944 -0.121146776 0.22161967 0.066039875 0.08101548 -0.21609837 0.36633638 0.30852264
-0.18971218 -0.13468042 0.25827572 -0.15503131 0.101498015 -0.04746843 0.013723909 0.056336448
0.24037836 0.15571511 -0.30751547 -0.13026473 -0.06387189 0.045021478 0.2935764 0.33406475
0.23156004 -0.09673038 -0.39711928 -0.10477022 -0.1878003 -0.12905817 -0.19542584 -0.095030375
00000000: 1372 1abe 5a94 79bb f60d d2bd a730 eb3e
00000010: 5d37 fa3d cae4 873e 44ef 9abe 14c0 323e
00000020: 2288 01bd c200 b5bc 265b 8f3d fc7c 9e3e
00000030: 5e72 393c a10b 3b3e 5aad 83be 3c9f 0c3d
00000040: 8a1c 88be 0127 513d c99b 503d 767c 28be
00000050: 4f15 a2be e92b 103e e673 053e bbd6 2dbe
00000060: fb4e 11bc 432b 06be e166 123d 4209 193f
00000070: e658 a6be 6d13 d83e ffc2 e0bd eaad debd
00000080: c239 0d3d 65e7 be3e 2c19 66bd 769f 2cbe
00000090: ada3 99bd 596f ba3d a021 49be f169 013e
000000a0: cf61 103f e03c 07be ba20 793f 619c 2fbc
000000b0: 4821 6b3e b283 c63d ce1f d93b bae3 38be
000000c0: a295 eabd acf8 543d d7c0 143f 9dae 25be
000000d0: e641 f23d 1360 eb3e 6c53 90be e4c9 3b3f
000000e0: 7a0f a1bc 8124 ad3e 7531 b2bd 1814 053e
000000f0: d9cb 973c 1067 db3d 29a1 9ebd 1551 8b3d
00000100: 60ba 1c3f ce83 b1bd fd54 7a3d 10fd 243f
00000110: bae7 febd b04d 003e 44d5 133e e857 e4bd
00000120: 3f0e 6d3e 2a83 24be f064 3f3c c3e1 953d
00000130: 0e75 c73a ad58 063d 7889 ee3d dd3a f93e
00000140: 086a ecbd 464f 44bd 4540 6cbe 779a 193d
00000150: 6fb0 04be a9e4 1abe d96a d0be 535a 90bd
00000160: 9708 c93d f5f3 7d3e 7b85 0dbd 7a61 653c
00000170: ddf6 07be f4c0 883e 6bbc ac3d 66e1 c0bc
00000180: 3e9c b5bd f5a7 a83b f9a2 023d da18 31be
00000190: 0acf d73d e23f ee3e 5c72 e53d d0c6 c73e
000001a0: ff0a 033f 72fe ae3e 0da5 3e3d 5862 30bd
000001b0: 5001 54bd beb7 e93d ca5e 6cbd 8696 00be
000001c0: ece2 183e a785 f63e 9c0d ff3d 16fa 7abd
000001d0: 36d4 94be 5391 4b3e 5cfd 923e 5146 423e
000001e0: 9062 04be 880b 49bd ddd8 9e3e 0b27 0e3e
000001f0: 035b cebd bec4 5b3c fb17 b53d 150b fe3c
00000200: de4e a43d 8547 8e3b 8a13 3d3f bb78 3cbe
00000210: 10b7 843d 71a1 bf3e 84aa 14be a819 a5bc
00000220: 520f c93d d21d 05bb b91a 3e3d 35f7 0b3d
00000230: c9b3 f63d f3da a4be 126e ef3e ec41 883e
00000240: 076e 1f3d 054d 27be f467 f0bd bf08 f1bd
00000250: 18bb c5bd cde2 1e3d f0b5 953e 7ed4 0d3d
00000260: dd8d 75be 9850 fabb 4180 d0bc 98e9 df3c
00000270: ea32 1cbe bc6a bb3e 7f73 413c 5e2b 543e
00000280: cafb da3c a7b4 353b 1ada 693d fd5e 1e3e
00000290: 45e4 f53e 9d37 903d 3ee5 5b3e c126 853e
000002a0: 965a afbd e4bc 4ebe ce96 49bc afae 84bd
000002b0: b6ec 8d3d c7b1 9ebc d21c 0a3f 8dab de3e
000002c0: 0811 a7bd fd6f 063e e346 9d3e ef28 833e
000002d0: 304a b0bd 65e4 d53d 78f4 373e 6bd5 1dbd
000002e0: d7cb c03d 8d23 b43c fa31 88bd c8c7 573d
000002f0: 0d68 523e 9de7 7a3e d3cd 2b3f f8b5 f73d
00000300: b99e 5ebe aba8 b73d f5b4 543e 0800 443c
00000310: e791 ad3e bdce 30be 1d46 233e 03e5 113d
00000320: 6c34 babe e339 77be 1e4c 8d3e 7bc4 bebe
00000330: 09c4 aebe 6236 603c 581b b63e e2a1 0f3e
00000340: 739d 5b3e 774b cb3e 2a03 d73e 4623 9cbe
00000350: 230c e7bd eddf df3d 1c0e dd3e b3b1 a6bd
00000360: 6746 743e e73d cf3d d762 66bd 70d6 d43d
00000370: 1d88 333e 3d54 63be 4b6b bc3e ada0 6d3d
00000380: 82cd e7bd cd1b f8bd 44f0 623e ea3f 873d
00000390: 72eb a53d e448 5dbe 7190 bb3e aef6 9d3e
000003a0: e943 42be aae9 09be b73c 843e 87c0 1ebe
000003b0: 31de cf3d 426e 42bd 3fda 603c 0cc1 663d
000003c0: bf25 763e c873 1f3e ab72 9dbe 1e64 05be
000003d0: 44cf 82bd 7168 383d a54f 963e 890a ab3e
000003e0: 131e 6d3e 941a c6bd 3853 cbbe c591 d6bd
000003f0: b94e 40be d327 04be b61d 48be 499f c2bd

linear.weight f4 [1, 100]
-0.6515343 1.4813328 -0.9832812 -1.3080134 1.3979005 1.4806402 0.11116799 -1.2971646
0.96536654 -0.84305024 -1.2500749 -1.380064 0.24189433 1.5928727 -1.3338326 -1.5196164
-1.2533036 -0.25330064 0.5553788 -0.18942228 -1.2883751 0.2689473 -1.8141553 0.75595725
1.4922997 1.3488824 -0.14362666 -1.0614088 -1.2500383 0.745011 -1.8324804 -0.89234525
1.1591005 -1.3618988 -0.71161634 1.5176469 -1.1421531 1.5555878 -1.2234143 -1.1842351
1.6002932 -1.1838205 -0.78281474 1.5721663 -1.281858 -1.4436289 -1.0972154 -1.2206305
-0.9886966 1.2539334 -1.632615 -1.4532998 0.92667073 1.6140646 1.168765 -1.0659666
-1.3777661 -1.0175468 1.257407 0.27889895 -1.0372394 0.6852905 -1.402151 1.0869784
1.2207885 1.1651008 -1.5102172 -0.43454403 -1.0410949 -0.82930267 1.2106367 -1.4084686
-1.6104904 0.7705772 -1.6474808 1.5383562 1.4005368 -0.77786577 1.4929523 -0.8025216
0.93237317 -1.1685458 0.83941686 1.4479157 -1.3949322 1.3792667 1.4533373 -1.1476725
0.42442617 -1.3228412 -1.7805918 -1.0551761 1.1232507 1.7021257 1.492486 1.4445106
1.1868098 -1.1472336 0.14309649 1.3131629
00000000: f4ca 26bf 509c bd3f 51b8 7bbf fc6c a7bf
00000010: 67ee b23f 9e85 bd3f 0bac e33d 7d09 a6bf
00000020: 4322 773f 24d2 57bf 7402 a0bf f0a5 b0bf
00000030: 26b3 773e 41e3 cb3f 07bb aabf ca82 c2bf
00000040: 416c a0bf 9fb0 81be 4e2d 0e3f eaf7 41be
00000050: 7ae9 a4bf 76b3 893e 3e36 e8bf 6a86 413f
00000060: ad03 bf3f 2ea8 ac3f de12 13be 3edc 87bf
00000070: 4101 a0bf 0ab9 3e3f b88e eabf bd70 64bf
00000080: 685d 943f b352 aebf 7d2c 36bf 4142 c23f
00000090: 1332 92bf 801d c73f d798 9cbf 0495 97bf
000000a0: 68d6 cc3f 6e87 97bf 8c66 48bf bf3c c93f
000000b0: ec13 a4bf d5c8 b8bf 8e71 8cbf 9f3d 9cbf
000000c0: 381b 7dbf e480 a03f 87f9 d0bf ba05 babf
000000d0: 4b3a 6d3f ab99 ce3f 179a 953f 9871 88bf
000000e0: a45a b0bf f93e 82bf b6f2 a03f d8cb 8e3e
000000f0: 43c4 84bf 336f 2f3f af79 b3bf 1c22 8b3f
00000100: cc42 9c3f 0622 953f cc4e c1bf 8e7c debe
00000110: 9942 85bf 2e4d 54bf 25f6 9a3f b348 b4bf
00000120: 8d24 cebf 8c44 453f a7e0 d2bf dbe8 c43f
00000130: ca44 b33f 3622 47bf 1019 bf3f 0e72 4dbf
00000140: 02b0 6e3f e992 95bf 06e4 563f 4d55 b93f
00000150: 238d b2bf d08b b03f f506 ba3f efe6 92bf
00000160: 634e d93e dc52 a9bf 6fea e3bf 0310 87bf
00000170: aec6 8f3f 41df d93f c809 bf3f b9e5 b83f
00000180: 62e9 973f 8dd8 92bf e387 123e b915 a83f
