beyimtech_hackhaton/trained_model.pth (torch, 167876 bytes, 5 tensors)

lstm1.weight_ih_l0 f4 [400, 1]
00000000: 000c 45ba a910 ab3d 68bb 87bd da8e 7d3d
00000010: 70f0 723c cdb3 be3d b0a9 73bd 4a6c 69bd
00000020: 38aa adbd b0b6 2dbd ccf4 be3c 549a e43c
00000030: bc59 0fbd 003e d6bb 73ba 58bd 2a7b bbbd
00000040: 84fa 16bd 8d5d 8bbd 09ad a83d 3425 ffbc
00000050: cc14 c93c b34a 6ebd 46aa 04bd cfe1 903d
00000060: f0bc 28bd 924c 023d 8a1c 38bd f9cf a13d
00000070: 80b1 81bd 0da3 72bd 328f c0bd 8014 c6bb
00000080: b1ad a83d 0e38 0c3d 6daf c9bd 3286 3f3d
00000090: 0028 38ba 8361 b33d a72b ccbd a84a d3bc
000000a0: 12d9 473d 40ba 6f3b 89a5 893d 2d46 77bd
000000b0: 2477 fb3c 101a 663c d8ab a9bc f371 afbd
000000c0: 240e cf3c f85c 85bd 00d8 61bb 90c6 b8bd
000000d0: 1654 94bd 96eb a3bd 6d9b b0bd 2e78 103d
000000e0: 4135 9a3d 9822 ccbd a6c7 97bd b78a 39bd
000000f0: 1ea4 6e3d 27b4 bbbd 747a e63c a810 c8bd
00000100: a012 6dbd 40fc 37bb e8f1 383c 2e82 7f3d
00000110: 4331 9fbd 92f3 053d 0106 c83d 3603 89bd
00000120: b3de 71bd 0447 fa3c 928f 1c3d 0092 d23a
00000130: c2e5 3d3d a1a8 c43d eeeb 3a3d fef4 073d
00000140: a8fc 183c 3a41 2d3d 6e25 123d 8c80 aa3c
00000150: c6ee a6bd 2913 853d 3204 023d e5dd 83bd
00000160: 80fc 8a3c 83f8 6ebd e082 4bbd b879 fcbc
00000170: f088 9dbd 8a5b 643d e8f0 b7bd dfb7 843d
00000180: 3031 fa3b 024c 7f3d d956 943d b047 7fbd
00000190: 58e9 bcbd 8016 903a bd16 9d3d 3695 393d
000001a0: cc8c e0bc 4b56 8d3d b8f3 cabd 2671 753d
000001b0: d09e 7cbc 47e5 50bd 296b c83d e477 01bd
000001c0: 5007 83bb d04e 4a3c c0ed b53c 8287 013d
000001d0: 4eed 8bbd 5019 ec3b 1410 e2bc e475 13bd
000001e0: 9a85 c2bd 74a4 87bd d1b0 ca3d b78f adbd
000001f0: e657 96bd 8e3a a3bd cf2e ae3d 1847 7bbc
00000200: 9afc 463d eea2 703d c8b4 b7bd 06d1 6d3d
00000210: 4170 ca3d 45fa c93d 3330 c13d d87d 0dbc
00000220: d0f1 16bc 360d a5bd 13ff 24bd 286f c4bc
00000230: 5434 fbbc ceaa 693d d2c5 573d 5861 3d3c
00000240: c0a5 63bc f053 7a3c 0f8f b2bd 807c 29bd
00000250: 0c4f b0bc 10f4 09bc 1e93 3e3d 6da8 7abd
00000260: 00b9 513a 6cc1 d9bc 987d 25bc cc6b f4bc
00000270: 4142 a93d e28b 80bd 028d 113d 0070 e2bb
00000280: ec17 cfbc 3d10 9a3d d07a 403c 54d9 bdbc
00000290: 1781 6dbd 19b9 aa3d 475d c13d afea b43d
000002a0: 8753 43bd 99cd b43d c9f1 a53d 2a7d 743d
000002b0: f0b9 3cbd 80ab ddba c278 4e3d 8f92 aa3d
000002c0: 2c1d 873c 8d79 3bbd 898c 883d 5c31 f83c
000002d0: 3830 81bc e83b 4f3c 2066 bfbb 6af4 3f3d
000002e0: e0e9 fbbc a8b6 323c 8960 a23d e0d5 bfbc
000002f0: 6065 803c f92a c13d b2de 503d 686c 333c
00000300: c083 923c 6171 bc3d 58b3 b63c de76 97bd
00000310: ef7d 983d 7a94 b5bd 3781 39bd 9f76 adbd
00000320: 388e 9abd fbd2 ba3d 3069 ab3b 723c 633d
00000330: c48a f53c 80c6 8aba acb7 c43c 8906 973d
00000340: 356f a9bd 6830 3bbc 3d30 9dbd 50f1 233c
00000350: c2c8 6a3d 5242 033d 02d1 423d b994 893d
00000360: a51c 82bd af13 873d 5a35 75bd 4081 663b
00000370: fa60 8cbd 585e a33c 90d8 45bc 334e 71bd
00000380: bb7a bb3d 4eda 253d 56b3 11bd 265e 0d3d
00000390: 5adb 5fbd c2c2 5a3d b008 5ebd 0020 213a
000003a0: 0029 cc3b e3f9 8cbd 1c25 d73c 057d a4bd
000003b0: 5638 8dbd 1f27 983d c00e a83c bdb3 c53d
000003c0: e887 e5bc 92d2 063d 0f5f 943d 6db2 acbd
000003d0: 2419 dd3c dd7a 56bd e985 a83d 3226 1e3d
000003e0: 9865 bb3c baee 57bd d264 473d cabf 493d
000003f0: c991 bb3d a7b8 7ebd f523 c0bd 790b ab3d
-0.0007516742 0.08352787 -0.06627542 0.061903812 0.014827833 0.09311638 -0.059488 -0.056988038
-0.08479732 -0.042410553 0.023310088 0.02790562 -0.034997687 -0.0065381527 -0.052912187 -0.09154351
-0.036860004 -0.06804953 0.08236129 -0.03114567 0.02454605 -0.058176707 -0.032388948 0.070743196
-0.04119581 0.031811304 -0.044949092 0.07900996 -0.063326836 -0.05923753 -0.09402312 -0.0060449243
0.08236254 0.034233145 -0.09847913 0.046758838 -0.00070250034 0.08758833 -0.099692635 -0.025792435
0.048791 0.003657952 0.067210265 -0.06036966 0.03069646 0.0140443 -0.020711824 -0.08566656
0.025275297 -0.06511873 -0.0034461021 -0.09022248 -0.072426006 -0.08003919 -0.08623395 0.035270862
0.075296886 -0.09967536 -0.07411127 -0.045298304 0.058261983 -0.09165221 0.028134562 -0.09768802
-0.05787909 -0.0028073937 0.011288144 0.06238001 -0.07773068 0.03270299 0.0976677 -0.066900656
-0.059050273 0.030551441 0.038222857 0.001606524 0.046361692 0.09602476 0.045635156 0.033192627
0.009337582 0.042298533 0.035680227 0.020813249 -0.08151011 0.06497795 0.031742282 -0.064388074
0.016966105 -0.058342468 -0.04968536 -0.030819759 -0.076921344 0.05575136 -0.08981496 0.06480383
0.007635258 0.062328346 0.072431274 -0.062324226 -0.09224194 0.0010993034 0.076703526 0.045308314
-0.027410887 0.06901225 -0.09909767 0.05992236 -0.015418723 -0.050999906 0.09786064 -0.031608477
-0.0039986745 0.012347892 0.022208095 0.03162337 -0.06832372 0.007205166 -0.027595557 -0.0360011
-0.09498139 -0.06623164 0.09897006 -0.08474677 -0.07340984 -0.07970153 0.08505022 -0.015336774
0.048580743 0.05874913 -0.08970028 0.05806067 0.09884692 0.09862188 0.094330214 -0.0086359605
-0.009212926 -0.080591604 -0.04028232 -0.023978785 -0.0306646 0.057047658 0.05267889 0.011558853
-0.013894498 0.015278801 -0.087186925 -0.041378498 -0.021522067 -0.008420005 0.04652702 -0.06119578
0.00080002844 -0.026581489 -0.010100745 -0.029836558 0.0826459 -0.062766805 0.035534866 -0.006910324
-0.025279962 0.075226285 0.011748031 -0.02317492 -0.057984438 0.08336086 0.09441619 0.08833825
-0.04768708 0.08828277 0.081027575 0.05968968 -0.04607576 -0.0016912073 0.050408132 0.08328735
0.016493402 -0.045770217 0.0666743 0.030296974 -0.015770063 0.01264856 -0.0058410317 0.04686395
-0.030751169 0.010907806 0.07928569 -0.023417413 0.01567334 0.094320245 0.05099363 0.010951139
0.017885089 0.09201313 0.022302315 -0.07395719 0.07445895 -0.0886621 -0.045289245 -0.08469891
-0.07546657 0.091222726 0.005231045 0.055477567 0.029973395 -0.0010587722 0.024013363 0.07374293
-0.08273164 -0.011425115 -0.07675216 0.010006264 0.057320364 0.03204567 0.047562607 0.0671782
-0.0635312 0.06595551 -0.059865333 0.0035172254 -0.06854434 0.019942448 -0.012075558 -0.058912467
0.09154268 0.040491395 -0.03557142 0.034513615 -0.05465255 0.05340839 -0.054207504 0.0006146431
0.0062304735 -0.068835996 0.026262812 -0.08031658 -0.06895511 0.07429337 0.020514846 0.09653423
-0.028018907 0.03291566 0.072446935 -0.084324695 0.026989527 -0.052363265 0.08228666 0.038610645
0.022875592 -0.0527179 0.048680134 0.04925517 0.09158666 -0.062187817 -0.09381858 0.083517976

lstm1.weight_hh_l0 f4 [400, 100]
00000000: 7f2c 9d3d becd 073d 2a75 c4bd 8187 9a3d
00000010: d78e a93d 523b 9ebd 18c2 3c3c 51de 8f3d
00000020: 6908 9c3d 9007 403c e6d0 aabd e2d3 3b3d
00000030: b4fd c53c c180 953d 0353 c3bd a0fc e8bb
00000040: 6615 183d a08c 79bb 1462 ecbc e894 d4bc
00000050: 38b6 b5bd 5626 a7bd 2e02 5a3d ca17 563d
00000060: b7f1 ae3d b473 d23c f414 c7bc 18de 853c
00000070: fe15 98bd 3067 26bc 9741 c23d 7b1d 8b3d
00000080: 2ed1 413d 33e5 66bd 29c3 873d 40af 6e3b
00000090: c0fd 44bc 07d3 cabd d08c 143c a81c 2e3c
000000a0: a919 963d 0c8e db3c b0be b4bb 39c2 be3d
000000b0: 82df 013d 7190 903d eca2 d6bc 6db6 c03d
000000c0: 2802 af3c 6844 20bc 08fc adbc e8cf 693c
000000d0: 8257 c3bd 8e8f 333d e092 b8bc 94bb acbc
000000e0: fdbf 1bbd f9fb b03d 4cc0 efbc 5303 97bd
000000f0: 2009 5cbd 35b4 a5bd e603 6f3d 359e 833d
00000100: 2a7f 26bd f2ca 8cbd 523c 5d3d 79cf 883d
00000110: 915e 943d 0656 273d 0754 8f3d 9693 7e3d
00000120: c3d7 b03d a9cb 993d 2307 b5bd 1f4b ba3d
00000130: 934a be3d 9a7c 483d ac61 9dbc 5e1f 613d
00000140: 484a c8bd b0ea b3bd 7ac8 c2bd 139b 93bd
00000150: 45dc b63d 1ff1 c83d 6a20 66bd c892 c9bd
00000160: 038d 3bbd d8cd 4f3c 54f4 e53c baaa 7b3d
00000170: bf1d c7bd a129 aa3d 0094 b7b8 b537 adbd
00000180: 6375 21bd 6094 443b d0ef c8bb 342e cc3c
00000190: a01a 09bb 6855 033c b625 603d 58c7 963c
000001a0: 580c 3ebc 1a10 afbd 7011 16bc 7604 86bd
000001b0: 883d 99bc 296e 823d aa6e b3bd 51ea ad3d
000001c0: 6234 263d beb3 90bd 41a3 b93d 6043 8bbc
000001d0: ad7c b83d 7211 9ebd f06f 62bd 94ae 88bd
000001e0: aa78 153d 9817 6c3c d5f8 cabd 3d95 9c3d
000001f0: e06c 7bbd 50a7 70bc 1e28 663d 2fd5 823d
00000200: 4224 2e3d 1d60 a73d e0cb 4ebd 509c 72bc
00000210: c86e cb3c 2ea6 86bd 94e2 b8bc e1f4 a73d
00000220: 63db c93d 03d8 7bbd a6d8 213d 0b9a 863d
00000230: 4c90 fc3c 73d3 9b3d 0033 fdb9 3250 2a3d
00000240: 7b02 cabd 806f b23b 159d ba3d 2d09 9fbd
00000250: 3248 9abd 0cc7 a03c 4d81 43bd b057 91bb
00000260: 4237 723d 73d6 19bd e360 91bd e353 ab3d
00000270: 3aec 113d 7285 153d 463f 203d 2534 bb3d
00000280: 786c f1bc d313 73bd bdbd 56bd b832 dabc
00000290: 009a 09bb 974e 36bd c4b4 08bd bf27 953d
000002a0: f74f 40bd 1616 a6bd 30be 8d3b c8bc 893c
000002b0: a04f 56bd 3461 ac3c b00f b5bd c015 00bb
000002c0: 122c 623d ac4c 873c 7af4 8abd b086 a13b
000002d0: a398 acbd b03d 7abd 02b3 b1bd 7808 a23c
000002e0: 6541 bcbd 00f0 4339 d7f5 4abd d89b 393c
000002f0: 0d6e 79bd 3e65 8cbd 72f5 133d 85d2 813d
00000300: 7a45 36bd 337b 913d 60b6 eabc 4476 e73c
00000310: 00f1 b4bb 6320 3abd 305f 4dbd caf8 a5bd
00000320: baf7 793d 800c a03b 3041 603c d347 2bbd
00000330: 21fa 973d 4e1c 95bd adc3 80bd 7184 903d
00000340: dc6e 87bd f4ad 83bd cadd 133d 0a8b 1f3d
00000350: 7e2b 083d a34c ba3d 971f 54bd 25e8 9bbd
00000360: 9e33 0f3d 00c2 e73a a8dc 973c a644 693d
00000370: e92d ae3d 00bd a8b9 2296 97bd f0d1 013c
00000380: d8a4 c1bd d0f8 b6bb 6563 babd e824 9dbd
00000390: a72f 24bd e28c 9fbd 30f9 8fbb 28d6 1bbc
000003a0: 6d2d aa3d c654 2f3d 0218 95bd b4fd fcbc
000003b0: a8b4 5e3c cb0d ab3d 3d5a c2bd a50f b53d
000003c0: a2e3 1c3d b2fe c2bd f69a 86bd 6066 7d3b
000003d0: 28fd 0bbc b6bc 303d 6c16 ecbc 8b22 ab3d
000003e0: 02ee 1b3d 4095 8ebc 82bd 283d fb9a 9fbd
000003f0: 52f6 433d 6e73 563d c40a d83c a543 823d
0.076745026 0.033155195 -0.0959266 0.075453766 0.08279198 -0.07726158 0.011520885 0.07024825
0.076187916 0.011720553 -0.083406255 0.045856364 0.024168827 0.072999485 -0.095373176 -0.0071101934
0.037129782 -0.0038078204 -0.028855361 -0.02594991 -0.08872646 -0.08161609 0.053224735 0.05226878
0.08542197 0.025689937 -0.024301983 0.016341254 -0.0742607 -0.010156438 0.094851665 0.06792732
0.04731863 -0.056370925 0.06629021 0.0036420375 -0.012023389 -0.099035315 0.009066775 0.010626949
0.07329113 0.026801132 -0.005515896 0.09314389 0.031707294 0.070588 -0.026200734 0.09409795
0.021363333 -0.009781934 -0.021238342 0.01427076 -0.09538175 0.043838076 -0.022530973 -0.021085538
-0.03802489 0.0864181 -0.029266499 -0.07373681 -0.05371964 -0.080910124 0.058353327 0.0642666
-0.040648617 -0.06874646 0.054012604 0.06680197 0.072445996 0.040853523 0.06998449 0.062152468
0.08634903 0.07509548 -0.08839252 0.090963595 0.09291568 0.048946954 -0.019211613 0.054961555
-0.09779793 -0.087849975 -0.09510894 -0.072073124 0.08928732 0.09811615 -0.056183256 -0.098424494
-0.045788776 0.012683354 0.028070606 0.061442114 -0.097224705 0.08308721 -8.753687e-05 -0.08457891
-0.03941859 0.0029995665 -0.0061321035 0.024924375 -0.002092041 0.008015968 0.054723464 0.018405601
-0.011599623 -0.08547993 -0.009159431 -0.065438196 -0.018706098 0.06368668 -0.08761342 0.08491958
0.0405773 -0.07065533 0.09064341 -0.0169999 0.09008155 -0.07718171 -0.055282533 -0.06673923
0.036492027 0.014409922 -0.09910742 0.076456524 -0.06138313 -0.014688328 0.056190602 0.06388318
0.042515047 0.08172629 -0.0504874 -0.014807776 0.024833098 -0.06574665 -0.022568978 0.08201004
0.09856298 -0.0614853 0.039513253 0.0657235 0.030830525 0.0760869 -0.00048293918 0.041580386
-0.09863754 0.0054454207 0.09111992 -0.07765422 -0.075333014 0.019626163 -0.047730733 -0.004435502
0.05913473 -0.03755803 -0.07098558 0.083656095 0.035625674 0.036504216 0.039122842 0.09140805
-0.029470667 -0.059345078 -0.052427042 -0.026635513 -0.0020996332 -0.044508543 -0.033375517 0.072829716
-0.04695126 -0.08109681 0.0043256506 0.01681365 -0.05232203 0.021042444 -0.08840883 -0.0019544214
0.05521781 0.016516052 -0.067849115 0.004929386 -0.08427551 -0.061093986 -0.08676721 0.019779429
-0.091921605 0.00018686056 -0.049550857 0.01132866 -0.06089597 -0.06855248 0.036122747 0.063389815
-0.04449985 0.071035765 -0.028651416 0.028254636 -0.0055218935 -0.045441043 -0.050139606 -0.081040934
0.061027266 0.0048843026 0.013687417 -0.041816544 0.07420755 -0.07280789 -0.06287322 0.07056511
-0.066129416 -0.06429663 0.036100186 0.038950957 0.033244602 0.090966485 -0.05178794 -0.076126374
0.034961335 0.0017681718 0.018537834 0.056950234 0.085048504 -0.00032184273 -0.074016824 0.007923588
-0.094552696 -0.00558386 -0.09100989 -0.07673055 -0.040084507 -0.07790543 -0.004393719 -0.009511508
0.083094455 0.042805456 -0.0727997 -0.030882694 0.0135928765 0.0835224 -0.09489868 0.088408746
0.038303025 -0.095212355 -0.06572525 0.0038665757 -0.008544244 0.04314872 -0.028819285 0.08356198
0.03806878 -0.017405152 0.041196354 -0.07793232 0.04784233 0.052356176 0.026372321 0.063605584

lstm1.bias_ih_l0 f4 [400]
00000000: 30d1 5cbd 53fc 9bbd 4698 6b3d 2680 a0bd
00000010: ffe6 943d 568b 87bd 45b0 97bd fda5 35bd
00000020: c023 133c 82e9 363d db8c b03d 8856 8b3c
00000030: 10a0 5b3c 7f2d 8f3d 45e8 853d 806b ce3a
00000040: 78f3 b03c 7c7d 85bd 5324 9e3d 2ea1 2e3d
00000050: 7f72 af3d ea24 743d 4cd9 9abc 504c cebb
00000060: a389 af3d 585e e9bc 157f 8b3d a3e2 8dbd
00000070: 0045 663c b09a 693c 4d7c 3bbd a073 95bb
00000080: 9d13 51bd 32a7 5d3d 200e babb 51b7 ac3d
00000090: ad53 39bd f4ea e83c 42ee 713d 18fb 923c
000000a0: d0cb 5abc 9246 723d d885 c13c 2878 b23c
000000b0: 4923 923d aaf4 2abd f0c8 6c3c 20a0 3dbd
000000c0: 4e0e 6f3d f23f a9bd 800b bb3a 406f e7ba
000000d0: faf5 6c3d 7726 7ebd e041 75bd 1674 143d
000000e0: 0b75 bfbd 78d3 9cbc f261 743d 30b0 dbbb
000000f0: 489f 89bd a4f8 d53c 5aa6 91bd 9867 24bc
00000100: 96c6 583d 30f0 46bc b5ab bfbd 3c3e 06bd
00000110: bfa4 b1bd 7c0f fd3c a076 35bd 711f c23d
00000120: 6b3a b2bd 2e75 633d 627b 233d 176e 873d
00000130: 50fa f83b 4ae5 1c3d a04c 60bb f38a 3fbd
00000140: d755 a83d e69f 90bd 18d3 8cbd 5a3e 63bd
00000150: b0c9 f03b 94cf cabc 68b8 46bc 0906 c73d
00000160: a014 eb3b ff2d b8bd 8852 8d3c 802d efbb
00000170: 78f2 debc 994d a43d 55b9 aabd 05e9 ad3d
00000180: 180e a9bc 9396 873d 5213 353d 980c f7bc
00000190: 302f 1bbc 92e7 793d ac71 d3bc c770 c63d
000001a0: 324a 2e3d d639 313d af5a a23d 3980 983d
000001b0: 1d17 813d 0bf0 b03d 7335 953d e801 95bc
000001c0: 202c 6fbd d099 853b fad0 b9bd d83d 25bc
000001d0: ba0e c3bd 870c 70bd 0040 ce3a 72e7 c0bd
000001e0: e6d0 383d b284 253d e35c 71bd 5082 3c3c
000001f0: 39ba a23d 3f3e aa3d 6cea ecbc 60df a23c
00000200: f7cb 53bd a861 eebc 605f 75bd 9a89 213d
00000210: 0076 073b 9683 99bd 39bb cb3d a037 4a3b
00000220: bb33 c6bd 15b8 bdbd d4b0 893c e0b9 c0bd
00000230: 72cc 063d 3431 13bd 2020 9cbd 5440 9f3c
00000240: 6cc5 a13c a84a acbc 70cb c8bd 5fb2 c9bd
00000250: 4e24 573d a022 38bd b1e7 ca3d b7f8 39bd
00000260: 31ce 9c3d 3b28 9a3d 82df 233d 801e b03c
00000270: 5084 38bc d0b6 a33b 4281 c9bd 18c8 b73c
00000280: 84d5 01bd 7889 a1bc 6fce ab3d 22c8 a0bd
00000290: 50a2 ce3b 2e7b a5bd bd4c 4ebd 955b 8f3d
000002a0: 22ae 95bd 1ace b3bd 927e 153d 92cc 233d
000002b0: ccdb 8c3c 6ca2 ff3c 3c69 d53c 79ad a13d
000002c0: 8095 8f3c 0732 5ebd af39 cc3d 43ac a33d
000002d0: ab96 823d 685d cc3c a049 bfbd 0084 0ebc
000002e0: e44c e93c 0c67 10bd 740d 8dbc 983f c0bd
000002f0: d90a 923d f60a 89bd d027 67bc 8c48 bc3c
00000300: 62e8 723d 6ec8 653d 18cf 60bc e3d3 b03d
00000310: 7597 bbbd ed53 21bd b7d9 54bd 186a 843c
00000320: c626 593d b2e6 2a3d 6972 b33d ab41 bb3d
00000330: f108 ab3d abe0 bfbd c7b8 a43d 4084 513c
00000340: f62c 083d e09c 97bd 404d 903c cf30 b83d
00000350: 4829 c5bd 77c3 32bd 3de3 68bd f4f9 d3bc
00000360: 4009 c3bc 6e4a 143d 377a c43d 00f8 e93b
00000370: c035 a0bd 80ff 7cbc 34ce 88bc 77b2 c33d
00000380: 08be a03c 70ee 303c 405b 62bd ffbe bebd
00000390: 80d2 81ba 80a3 7cbc 655e a9bd 8eae 293d
000003a0: 6220 413d c076 653c 68b5 9dbd fb15 923d
000003b0: b574 b73d 0018 07bc 9897 acbd 0028 2a3b
000003c0: 2a61 abbd 2746 78bd a811 5b3c 009e fc39
000003d0: d6e9 473d 627b 393d f051 673c 6067 b3bd
000003e0: 11c7 913d 7c0e 0fbd 8d95 83bd 3a73 5ebd
000003f0: 1f47 c33d 3a74 593d b033 0fbd 1bb7 93bd
-0.053910434 -0.076164864 0.057518266 -0.078369424 0.072706215 -0.06618373 -0.074066676 -0.044347752
0.008980691 0.044656284 0.08620616 0.017009035 0.013404861 0.069910996 0.065384425 0.001574859
0.02160047 -0.06518075 0.07721772 0.04263418 0.0856676 0.059605516 -0.018902443 -0.0062957183
0.08571174 -0.02848737 0.06811348 -0.06927993 0.014054537 0.014258072 -0.04577284 -0.0045609027
-0.051044095 0.054114528 -0.0056779534 0.08433402 -0.045245815 0.028432347 0.05906511 0.017941996
-0.013354257 0.059149332 0.023623392 0.02178581 0.07135636 -0.041737236 0.014452204 -0.046295285
0.05836325 -0.0826415 0.0014270395 -0.0017657056 0.05785177 -0.0620484 -0.059877276 0.03624352
-0.09348496 -0.019143805 0.05966372 -0.006704353 -0.067198336 0.026119538 -0.07111807 -0.010034464
0.05292376 -0.012142226 -0.093589224 -0.032774195 -0.08674001 0.030891173 -0.044302583 0.09478653
-0.087025486 0.055531673 0.03991259 0.06612795 0.007598199 0.038304605 -0.003422536 -0.04676337
0.08219498 -0.07061748 -0.068762004 -0.055479385 0.007348262 -0.024757184 -0.012128927 0.09717948
0.0071740896 -0.08993148 0.017251268 -0.007299125 -0.027215227 0.08022613 -0.083361305 0.084917106
-0.020636603 0.06620517 0.04420788 -0.030157372 -0.0094717 0.06101186 -0.025811039 0.09689479
0.042551227 0.043268047 0.07927453 0.074463315 0.06303237 0.086395346 0.07285585 -0.018189386
-0.05839169 0.004077174 -0.09073062 -0.0100855455 -0.09524293 -0.058605697 0.0015735626 -0.09419145
0.045121096 0.04040975 -0.058926474 0.011505678 0.079456754 0.08312654 -0.028920375 0.019881904
-0.051708188 -0.0290993 -0.05990541 0.039437868 0.0020669699 -0.07495801 0.09947819 0.003085591
-0.096778356 -0.092636265 0.016807951 -0.09410453 0.032909818 -0.035935596 -0.07623315 0.019439854
0.019747458 -0.021031693 -0.098044276 -0.09848475 0.052524857 -0.044954896 0.09907473 -0.04540321
0.076565154 0.075272046 0.040008076 0.021498919 -0.0112620145 0.004996158 -0.09839107 0.02243428
-0.031697765 -0.01971887 0.083889835 -0.07850672 0.0063059703 -0.08080135 -0.050366152 0.0699989
-0.07308604 -0.08779545 0.03649766 0.039990015 0.017194651 0.031205378 0.026051156 0.078944154
0.017527342 -0.05424693 0.0997194 0.07991841 0.06376394 0.024946883 -0.09340215 -0.008698463
0.028479047 -0.035254523 -0.017218329 -0.093871295 0.07130975 -0.06691544 -0.014108613 0.022983812
0.05930365 0.056099348 -0.01372125 0.08634164 -0.091597475 -0.03938668 -0.05196544 0.01616387
0.053015493 0.041723914 0.087620564 0.091433845 0.08351315 -0.09369024 0.08043056 0.0127878785
0.033246003 -0.074029684 0.01761496 0.089936845 -0.096270144 -0.04364344 -0.056857336 -0.025876023
-0.023808122 0.036203794 0.09593623 0.0071401596 -0.07822752 -0.015441775 -0.016699888 0.09555524
0.019621864 0.010799035 -0.055262804 -0.09313773 -0.0009904653 -0.015419841 -0.082699575 0.041426234
0.047150023 0.014005363 -0.07700616 0.07133099 0.08957807 -0.008245468 -0.08427352 0.0025963783
-0.08368142 -0.060613777 0.013370909 0.00048182905 0.048806988 0.045283683 0.0141186565 -0.087599516
0.07118047 -0.034925923 -0.06425009 -0.054309107 0.0953505 0.053089358 -0.034961402 -0.07212659

lstm1.bias_hh_l0 f4 [400]
00000000: 0735 3ebd 9570 a1bd 7255 adbd 9864 bb3c
00000010: 635f a73d d2b2 b2bd a83c 89bd c2cd bcbd
00000020: 4718 aa3d 20b6 c63b 3daa 27bd d0fe ed3b
00000030: 2417 dc3c 1ade 7abd d016 bfbd 6da4 afbd
00000040: 30c0 c9bd 528e 573d 7554 81bd cf18 a93d
00000050: a3e6 64bd ae7f 82bd d073 3a3c c9b3 a63d
00000060: 23fb 1ebd cdd8 5fbd a5f2 893d 9f12 a23d
00000070: e0d1 863b d17c bc3d 00ed 40bb b4c3 aa3c
00000080: 2836 82bc a888 273c c931 9b3d c971 c73d
00000090: 2609 033d 29c5 863d 00a0 fd3b d060 78bd
000000a0: 7ca6 8bbd 89fc a23d e09c 03bd ea62 393d
000000b0: 2813 393c 7459 f8bc 7a2c 83bd 557c c13d
000000c0: bd88 4cbd b063 ce3b 6ccf 0dbd 7486 913c
000000d0: 45ef b53d b5be afbd bcf4 e93c 7062 763c
000000e0: bd8b 883d 6ae3 9bbd 9336 c8bd 800f 993b
000000f0: 008d 98bc c0e1 333c 34b5 88bd ac47 a9bc
00000100: 1001 9ebd d8d0 5f3c 72cf 013d f5d4 863d
00000110: 7ea1 4f3d 68f5 943c 9248 673d e7f1 4cbd
00000120: 1d59 35bd 30f6 b73b 29c0 913d 42e7 8bbd
00000130: 0eb1 573d 0068 333c 0071 3dbc 98c1 b0bc
00000140: c38e 7abd 805d a13c 4a30 7dbd 40fb 203b
00000150: cd1d c43d 5014 663c e0c1 7dbd cd94 24bd
00000160: 2d9a c83d d36c 9abd da1a 5cbd 10c1 223c
00000170: ac00 bbbc 4d0d 77bd 93d7 91bd b282 6a3d
00000180: 59ed a43d 74d2 e4bc a8f6 a9bc c295 4c3d
00000190: db9c 863d 4069 493c 5051 9e3b 1053 1d3c
000001a0: f2ba c2bd c0b0 c1bc a843 27bc 03f1 b33d
000001b0: 2a65 16bd d90c a83d 9077 08bd 1953 ae3d
000001c0: 8c4f 0bbd 000c ca3a fb52 c9bd 46ba 073d
000001d0: e04f c0bb f00f 70bd b235 023d f019 27bd
000001e0: e722 943d 5ede 393d fb20 a13d be7c 073d
000001f0: 7a94 5fbd 8a8a 2e3d 7d8d 60bd cf0c 813d
00000200: b80c 80bd 886a 8fbd 6c57 87bc c501 963d
00000210: f729 3abd dad3 76bd 7896 94bc 609e acbc
00000220: 5033 b5bd ab60 c83d 20c3 d2bb d324 ae3d
00000230: 4cd4 9f3c 4017 1cbd c466 00bd ed03 853d
00000240: 8f0b c4bd 9452 06bd 508d 41bd 2904 8c3d
00000250: bd15 863d e8e8 643c b006 943b 783b adbd
00000260: 6394 813d 05ad a7bd 82d5 9cbd 857c c03d
00000270: 021a adbd e32a 6ebd 3f49 c4bd 0e28 7d3d
00000280: e835 7bbc 47d5 25bd 8f2b 973d 15ff b63d
00000290: f140 983d a203 003d a870 023c c90e bc3d
000002a0: f372 4ebd 33b6 9a3d 4426 ed3c 41b3 8e3d
000002b0: bd07 24bd d0af 63bc 1408 f6bc 28ff 7bbc
000002c0: 9581 8b3d 223b 4d3d 760c 123d 6dea a23d
000002d0: fddf 6ebd 4314 5ebd 1eed 2d3d 5000 73bc
000002e0: 0b1f 923d c018 8e3c e897 b33c 3d2d 4dbd
000002f0: b88c e0bc 7e7f 693d 6850 643c 3318 a23d
00000300: d0c2 2bbd 5981 a13d a570 c4bd 0042 56bd
00000310: 8890 883c d8ca a3bc c06b 09bd 56e7 09bd
00000320: 00b2 d93b a9c8 893d c836 9fbc e185 bf3d
00000330: f069 03bd 62a4 493d 62ef 173d e8df bd3c
00000340: 2e1a 88bd 2c32 c8bc 3602 a8bd 30f3 55bc
00000350: cdb7 3ebd ca6c 5b3d 535f c1bd 2055 9ebc
00000360: 8008 c9ba 00bf 0fbb d888 0b3c dbea 96bd
00000370: 7086 4abc e513 a5bd b45a cf3c 9c50 fc3c
00000380: a809 b23c bdc7 8a3d f0b7 61bd ac79 cd3c
00000390: c6e0 0e3d 7301 bdbd be19 9bbd 80fa 1f3a
000003a0: e6e1 053d 934c c7bd db70 873d f337 a9bd
000003b0: f071 08bd 0be4 c03d a01b 25bb 70c3 5dbc
000003c0: 86d5 0d3d d794 b43d 6231 4b3d 2d23 20bd
000003d0: 45eb 873d 7a18 86bd d1c9 893d d7e1 46bd
000003e0: a229 92bd dd40 3dbd 1d66 8cbd 4237 c5bd
000003f0: 8cf9 fa3c b000 42bc c2e1 453d d56b 93bd
-0.04643729 -0.078828014 -0.08463563 0.022875115 0.081724904 -0.087255135 -0.067010224 -0.09218933
0.08305412 0.0060641915 -0.040933836 0.007263042 0.026866503 -0.06124697 -0.09330523 -0.085762836
-0.0985111 0.05262596 -0.06314937 0.08256685 -0.055884015 -0.06372009 0.011380151 0.0813976
-0.03881372 -0.054650117 0.06735734 0.07913708 0.0041143745 0.09203494 -0.0029438138 0.020845272
-0.015894964 0.0102254525 0.07577855 0.097385 0.031991147 0.06580574 0.0077400208 -0.060639203
-0.06818864 0.079583235 -0.03213203 0.045260347 0.011296071 -0.030316092 -0.064049676 0.094475426
-0.04993509 0.006298505 -0.03462164 0.017764308 0.08883528 -0.08581296 0.028559081 0.015038118
0.06667278 -0.07611735 -0.09776034 0.004671037 -0.018621922 0.010979116 -0.06675187 -0.020664059
-0.077150464 0.013660632 0.031691976 0.06583587 0.05069112 0.018183425 0.056465693 -0.050035384
-0.04427444 0.0056140646 0.0711673 -0.06831218 0.052659087 0.0109500885 -0.011562586 -0.021576688
-0.061171304 0.019697905 -0.06181363 0.002456382 0.095759965 0.014042929 -0.06195247 -0.04018097
0.09795032 -0.07540288 -0.053736545 0.009933725 -0.022827469 -0.06031542 -0.07121196 0.057253547
0.08053083 -0.027932383 -0.020747498 0.049947508 0.065728866 0.01229316 0.0048314705 0.009602323
-0.09508313 -0.023643851 -0.010209002 0.08786204 -0.03671757 0.082055755 -0.03331715 0.08511943
-0.03401141 0.0015414953 -0.098302804 0.03313663 -0.005868897 -0.05860895 0.03178949 -0.04079622
0.072332196 0.04537808 0.07867619 0.033077948 -0.054584958 0.04261259 -0.054822434 0.06301271
-0.06252426 -0.07002741 -0.016521178 0.07324556 -0.045450177 -0.06026063 -0.018138155 -0.021071613
-0.08847678 0.09784063 -0.006431952 0.085031174 0.01951041 -0.03810811 -0.031348005 0.064948894
-0.09572517 -0.032793596 -0.047253907 0.06836731 0.06547115 0.013971545 0.004517399 -0.084586084
0.06327131 -0.08187298 -0.07657911 0.0939875 -0.08452226 -0.05814637 -0.09584283 0.061805777
-0.0153326765 -0.0404866 0.07381355 0.08935372 0.074342616 0.031253465 0.00796143 0.091825075
-0.050402593 0.07554283 0.02894891 0.06967784 -0.040046442 -0.013896897 -0.030033149 -0.015380658
0.06811825 0.05010522 0.035656415 0.079548694 -0.05831908 -0.05421854 0.04246246 -0.0148316175
0.07134827 0.017345786 0.02192302 -0.05009197 -0.02741085 0.05700635 0.013935186 0.07914772
-0.041933835 0.07885999 -0.09591798 -0.052309036 0.01667048 -0.019994184 -0.033550024 -0.033667885
0.0066435337 0.06727726 -0.019435301 0.09351707 -0.03208345 0.049229033 0.037093528 0.023178056
-0.066456184 -0.024437986 -0.08203547 -0.013058469 -0.046562005 0.053570546 -0.0944201 -0.0193277
-0.0015337616 -0.0021933913 0.008516513 -0.07369014 -0.012361154 -0.08060435 0.025311805 0.030800156
0.02173312 0.06776378 -0.055107057 0.025082432 0.03488233 -0.09228792 -0.07573269 0.0006102696
0.032686137 -0.09731402 0.06613322 -0.082626246 -0.033311784 0.09418496 -0.0025193468 -0.013535365
0.03462746 0.088174514 0.049607642 -0.039096046 0.06636671 -0.06547637 0.067279465 -0.04855522
-0.07136847 -0.046204437 -0.06855414 -0.0962968 0.030636571 -0.011840984 0.048311003 -0.07198302

linear.weight f4 [1, 100]
00000000: f252 6f3d d8cd 3f3e c07b 26bb dec7 6f3d
00000010: 0368 983e a87b eabc 8626 16bd 697a ad3d
00000020: c0cc ef3a 8077 cb3b dcf4 d7bd e25a 3c3d
00000030: be75 453d 8bfd a63d ac8a fabc f062 96bd
00000040: a01d 94bc 2a06 243d d0c8 e13b c4b3 12bd
00000050: 806d dcbb 16b8 003d 57e8 2fbd 7bfd 80be
00000060: b425 edbc e042 983c 15c4 c73d 86cb 923e
00000070: a64a 083d bd86 55bd 9402 c03c 8185 ae3d
00000080: f92f 6f3e 82a8 8ebe 12e9 563d c3be 50be
00000090: 592f ab3d 50f3 e63b 610e bb3d 2077 a0bd
000000a0: b0e3 93bd 34c9 86bc 4ea4 883e 5232 9bbd
000000b0: 560b 2c3e 0014 82bc e036 9dbb cc7e b5bc
000000c0: 9307 4e3e 3b2f 9b3d d071 25bc 005e c639
000000d0: a038 03bb 42f9 233d 6b66 9a3d 46b0 693d
000000e0: 8faf 5a3e 024c 073d 7542 bbbd f2e6 603d
000000f0: dbc7 adbd 7e42 533d 78c8 983e 5a58 2a3d
00000100: d34e 9a3d 184d bc3c 22a3 6a3d 743f a4bc
00000110: 2b64 a0bd 137a 1ebe a0f6 40be 4098 483b
00000120: 5a35 c5bd 682c 9e3c b240 683d 3db3 b13d
00000130: 7932 c13d 7a3b 1abe 62c1 6c3d dd7e 943d
00000140: 3aca 8bbe e53a 95bd 369a 253d d23a 463e
00000150: 2849 d8bc 9fca 953e 3594 903e e20b 113d
00000160: bf2e febd e12d c83d cad9 7c3d 623f 103d
00000170: e2a0 693d 34ce 393e 4f49 c83d ea63 3bbd
00000180: d2da 45be 8d16 d4bd f65c 2b3e b7e4 38bd
0.058428712 0.18730867 -0.002540335 0.058540218 0.29766855 -0.028623417 -0.036657833 0.084706135
0.0018295273 0.006209314 -0.1054475 0.04598511 0.04820799 0.08153828 -0.030583702 -0.073430896
-0.018080533 0.04004494 0.006890394 -0.03581597 -0.0067269206 0.031425558 -0.042946186 -0.2519339
-0.028948642 0.018586576 0.097541966 0.286709 0.033274315 -0.05213045 0.02343873 0.085215576
0.23358144 -0.27862936 0.052468367 -0.2038527 0.0835864 0.007048048 0.09133602 -0.07835221
-0.07221162 -0.016453363 0.26687855 -0.07577957 0.168012 -0.015878677 -0.0047978014 -0.022155188
0.20120077 0.07577368 -0.010097936 0.00037835538 -0.0020022765 0.040032633 0.07539066 0.057052873
0.21356033 0.03303147 -0.09143535 0.054907747 -0.08485385 0.051577084 0.29840446 0.041588165
0.07534566 0.02298598 0.05728448 -0.020049788 -0.078316055 -0.15476255 -0.1884408 0.0030608326
-0.09629317 0.019308284 0.056702323 0.08676765 0.09433455 -0.15061751 0.05780161 0.0725076
-0.27302724 -0.07286624 0.04043027 0.19358376 -0.026402071 0.2925615 0.28238073 0.035411723
-0.1241126 0.09774376 0.061731137 0.035216697 0.057038195 0.18145066 0.097796075 -0.045749582
-0.19321755 -0.10355864 0.1673468 -0.045139994
