beyimtech_hackhaton/main/ml_model/trained_model.pth (torch, 167876 bytes, 5 tensors)

lstm1.weight_ih_l0 f4 [400, 1]
0	0xbcb63a74	-0.02224467
1	0xbcad8338	-0.021180734
2	0xba705800	-0.00091683865
3	0xbc67b6a8	-0.01414267
4	0x3dabbf45	0.08386091
5	0xbc62f118	-0.013851427
6	0xbd04e416	-0.032444082
7	0xbdc1779b	-0.09446641
8	0x3dbf4851	0.09339965
9	0xbd693f3a	-0.056945063
10	0x3bca2080	0.006168425
11	0xbda95fe2	-0.08270241
12	0xbdabac3e	-0.08382462
13	0x3c17d9e8	0.0092682615
14	0x3d6b01b2	0.057374664
15	0x3dba83c7	0.09107166
16	0xbd6a9e60	-0.057279944
17	0x3d29b38e	0.041431002
18	0xbc91de8c	-0.017806314
19	0x3c37afc0	0.011211336
20	0xbd89f0f2	-0.0673541
21	0xbd6d46fd	-0.057929028
22	0xbbe79e60	-0.0070684403
23	0x3b9a7b80	0.0047144294
24	0xbc35f580	-0.011105895
25	0xbd819204	-0.063266784
26	0xbd547d2a	-0.05187718
27	0x3d12536e	0.035724096
28	0xbbaf4f20	-0.0053500086
29	0x3d6b6a9a	0.05747471
30	0x3d73cd1e	0.059521787
31	0x3da043f9	0.07825465
32	0xbdb7db12	-0.08977331
33	0xbcbd4a38	-0.02310668
34	0xba833340	-0.001000978
35	0x3cab35ec	0.020899735
36	0x3cfa888c	0.030582689
37	0xbdb8acfd	-0.0901737
38	0x3a79fd00	0.0009536296
39	0x3d7c29ca	0.06156329
40	0xbd8f53f0	-0.06998432
41	0x3ce1a0fc	0.027542584
42	0xbd533d1d	-0.051571954
43	0x3d4a0162	0.049317725
44	0xbcc6c858	-0.024265453
45	0xbc1c13f0	-0.009526238
46	0x3d92c005	0.07165531
47	0x3d887feb	0.066650234
48	0x3d076812	0.033058234
49	0x3cc4cc68	0.02402325
50	0xbdcc8bab	-0.09987577
51	0x3dcab96d	0.098986484
52	0x3d43d19e	0.04780733
53	0x3d91aabd	0.07112644
54	0x3d322122	0.04348863
55	0xba9a5800	-0.0011775494
56	0x3d93e3c9	0.07221181
57	0x3c862534	0.016375162
58	0xbc3ec968	-0.011644699
59	0x3d8cc159	0.06872816
60	0xbce5b9ec	-0.028042756
61	0xbdad4acd	-0.08461533
62	0xbd84b9de	-0.06480764
63	0x3d0fdb06	0.035120986
64	0x3d9de5e9	0.077098675
65	0x3d95b965	0.07310752
66	0xbda7b932	-0.0818962
67	0xbda8cb83	-0.08241942
68	0x3d314706	0.043280624
69	0xbdaac363	-0.08338048
70	0x3d3f6686	0.046728633
71	0x3da1843f	0.07886552
72	0xbd13d580	-0.03609228
73	0xbd3d5df0	-0.046232164
74	0xbd1040c0	-0.035218
75	0xbcfa1694	-0.030528344
76	0xbd559307	-0.05214217
77	0x3d5469b2	0.05185861
78	0x3dc430f1	0.09579647
79	0x3cfacdec	0.03061577
80	0xbd7b749a	-0.061390497
81	0xbd9c3b40	-0.076284885
82	0xbd6b3330	-0.057421863
83	0xbcab65b4	-0.02092252
84	0xbdc18990	-0.09450066
85	0x3ba199b0	0.004931651
86	0x3c7849a8	0.01515428
87	0x3d595f86	0.053069614
88	0xbdc86b7d	-0.09786127
89	0x3d229542	0.039693125
90	0xbd8b60ed	-0.068055965
91	0xbbf2c1e0	-0.0074083656
92	0x3cafd680	0.021464586
93	0x3d685fca	0.056731977
94	0xbd2796d7	-0.040915336
95	0x3cd48714	0.025943317
96	0x3dc39abb	0.09550997
97	0xbd4f7a13	-0.05065353
98	0xbd610e97	-0.054945555
99	0x3dc9941d	0.098427035
100	0xbdca0ff0	-0.09866321
101	0x3dc8acb7	0.09798568
102	0x3d1622a6	0.036654137
103	0xbd6f0993	-0.05835874
104	0xbd0ed290	-0.034868777
105	0x3db397e1	0.08769203
106	0x3d28d3ea	0.041217722
107	0x3cbeef34	0.02330742
108	0x3d99c991	0.07509149
109	0x3d86e271	0.06586159
110	0xbdbe79d8	-0.093005836
111	0xbd15cae4	-0.036570445
112	0x3d96d047	0.073639445
113	0x3ab7c200	0.0014019608
114	0x3d0dd5ca	0.034627713
115	0x3da5aa01	0.08089066
116	0x3d10abc6	0.035320066
117	0xbdad369b	-0.08457681
118	0xbd5f5430	-0.054523647
119	0x3d5b55be	0.053548567
120	0xbd74c42a	-0.05975739
121	0x3cf20d04	0.029547222
122	0x3c61e8d0	0.013788417
123	0x3d778a06	0.060434364
124	0x3d864009	0.065551825
125	0x3dae9565	0.085245885
126	0x3d377ab2	0.044794746
127	0xbdc40d6d	-0.09572873
128	0x3d2e76aa	0.042593636
129	0x3dcadf51	0.099058755
130	0xbd67b303	-0.056567203
131	0x3db38029	0.08764679
132	0x3cf97b9c	0.03045445
133	0xbdb85e9d	-0.09002421
134	0xbdc623ff	-0.096748345
135	0x3cd994a4	0.026560135
136	0xbd53931d	-0.05165397
137	0x3da2849d	0.0793545
138	0xbada1180	-0.0016637295
139	0x3a2ec400	0.00066667795
140	0x3b0c75a0	0.0021432415
141	0x3d15fd5e	0.036618583
142	0x3db1dad1	0.08684314
143	0x3d930ad1	0.071797974
144	0x3d83b05d	0.06430123
145	0x3db9a059	0.09063787
146	0xbc2bc7b0	-0.010484621
147	0x3d5b791e	0.053582303
148	0x3dae0b03	0.08498194
149	0x3ad6ea00	0.0016396642
150	0x3b136e40	0.0022496134
151	0x3b3d6960	0.002890192
152	0x3d625a56	0.055261932
153	0x3c637ed0	0.013885215
154	0x3d6fb93a	0.058526255
155	0xbdbbdf1a	-0.091734126
156	0x3c47fd28	0.012206353
157	0xbc32c980	-0.010912299
158	0xbd28023a	-0.04101775
159	0x3cecfeb4	0.028930046
160	0x3d3a18b2	0.045433708
161	0x3dba940b	0.09110268
162	0x3d884b8b	0.06655034
163	0xbb5b9c00	-0.0033509731
164	0xbd4c8b33	-0.04993744
165	0xbd893dd8	-0.06701249
166	0x3da82609	0.0821038
167	0xbd0a4eb6	-0.03376647
168	0x3c384268	0.011246301
169	0x3db48dc5	0.08816103
170	0x3cd7bcd4	0.026335157
171	0x3d4a8dea	0.049451746
172	0xbc48bf28	-0.012252606
173	0xbd9ee9d2	-0.077594414
174	0xbd48c073	-0.04901166
175	0xbc45dd80	-0.0120767355
176	0x3db30683	0.087414764
177	0xbdca0b0b	-0.098653875
178	0xbd42f817	-0.04759988
179	0xbdcc5b77	-0.09978383
180	0xbc70fa80	-0.014708161
181	0xbd94b060	-0.07260203
182	0xbdc842e2	-0.09778382
183	0x3dbbd355	0.09171168
184	0xbca3290c	-0.019917034
185	0x3cf97f2c	0.030456148
186	0x3d85b263	0.06528165
187	0x3ca51314	0.020150699
188	0x3dacdf11	0.08440984
189	0xbd56637d	-0.052340973
190	0xbaef0b80	-0.001823768
191	0xbcaaa434	-0.020830251
192	0xbd01ae3c	-0.031660303
193	0x3d6962d2	0.056979008
194	0xbd9d880a	-0.07691963
195	0x3d6c2de6	0.05766096
196	0x3d8dbdb7	0.06920951
197	0xbd31fd60	-0.043454528
198	0x3d8c0c69	0.068383045
199	0x3db338f3	0.087510966
200	0xbd6b9e90	-0.057524264
201	0x3cec9d8c	0.028883718
202	0xbda8bc7a	-0.08239074
203	0x3dc34bed	0.09535966
204	0x3d11152a	0.035420574
205	0x3ce3d044	0.02780927
206	0xbd4160f7	-0.047211614
207	0x3c152190	0.00910224
208	0xbd8538bd	-0.065049626
209	0x3b2b64a0	0.0026152506
210	0x3d4d468e	0.050116114
211	0x3c915068	0.017738536
212	0x3da470f3	0.08029356
213	0xbd62f9b0	-0.0554139
214	0xba127180	-0.0005586371
215	0xbda0eb0e	-0.07857333
216	0xbd31beba	-0.04339478
217	0x3d44fad2	0.048090763
218	0x3d0a6366	0.0337862
219	0x3c5d9110	0.013523355
220	0x3d4b72d2	0.049670048
221	0x3cd29d74	0.025709845
222	0x3b1c24c0	0.0023825616
223	0xbd460037	-0.04834005
224	0xbd929568	-0.07157403
225	0x3d1760f2	0.03695769
226	0xbd00e874	-0.031471685
227	0xbd225cbd	-0.039639223
228	0xbbda7930	-0.0066672787
229	0x3b93a660	0.0045059174
230	0xbdb381e8	-0.08765012
231	0x3d8ef2bb	0.06979891
232	0xbda8af36	-0.08236544
233	0x3d9050ff	0.07046699
234	0x3d0e78ee	0.034783296
235	0x3da285b9	0.07935662
236	0xbc8b7414	-0.017023124
237	0x3cff9c84	0.031202562
238	0xbc1b21c0	-0.009468496
239	0xbdabbbfb	-0.08385464
240	0x3c454870	0.012041196
241	0x3da5527f	0.080723755
242	0x3d008702	0.031378753
243	0x3cb6f6b8	0.022334442
244	0xbb1191c0	-0.0022212118
245	0xbcd4daf8	-0.025983319
246	0x3bccadd0	0.006246306
247	0xbd182fc0	-0.037154913
248	0x3c83bbe8	0.016080812
249	0xbd321c93	-0.04348428
250	0x3d88aa6b	0.0667313
251	0x3c838fd4	0.016059794
252	0xbbfd98e0	-0.0077391714
253	0x3cd89584	0.026438482
254	0x3d31fb2e	0.043452434
255	0x3b967b30	0.004592322

lstm1.weight_hh_l0 f4 [400, 100]
0	0xbb6e2d00	-0.003634274
1	0xbdac4c46	-0.084129855
2	0xbda14b62	-0.07875706
3	0xbd8db453	-0.0691916
4	0xbda81b36	-0.08208315
5	0xbb8d70e0	-0.0043164343
6	0xbd658a13	-0.05603988
7	0xbdad8388	-0.08472353
8	0xbc84b840	-0.016201138
9	0xbdc35093	-0.09536853
10	0xbd1cf090	-0.038315356
11	0xbd8cdf16	-0.06878488
12	0x3db51317	0.08841532
13	0xbd5b11ba	-0.053483702
14	0xbd58221d	-0.052766908
15	0x3d1ea46a	0.038731016
16	0x3ce04394	0.027375974
17	0x3c832eec	0.016013585
18	0x3da63d4d	0.08117161
19	0x3c9e4760	0.019321144
20	0x3cb7ca48	0.022435322
21	0xbdb20797	-0.08692854
22	0x3dad2e8f	0.08456146
23	0x3bd518e0	0.0065032095
24	0x3c3c89d8	0.011507474
25	0xbcdb698c	-0.026783727
26	0xbd207650	-0.03917533
27	0xbda80e33	-0.08205833
28	0x3d9331b1	0.07187212
29	0x3da301d1	0.07959331
30	0x3d6540b2	0.0559699
31	0x3d5992ee	0.05311864
32	0x3cfe5254	0.031045116
33	0x3d671642	0.05641771
34	0xbd72af27	-0.05924907
35	0xbcc81718	-0.024425074
36	0x3db6b3b9	0.08920998
37	0xbc9fdcf8	-0.019514546
38	0xbdbd0bb7	-0.0923075
39	0x3cf93984	0.030422933
40	0xbd67b563	-0.05656947
41	0x3ca0a8d4	0.019611754
42	0xbd2f559a	-0.042806245
43	0x3d480046	0.048828386
44	0x3d397df2	0.045286126
45	0xbbc2e020	-0.005947128
46	0x3b4b83c0	0.003105387
47	0x3d9ca6b1	0.07648981
48	0xbbcdbe30	-0.0062787756
49	0x3d210202	0.039308555
50	0xbdbdc352	-0.0926577
51	0xbd087490	-0.033314288
52	0x3d95ee23	0.073208116
53	0x3c9a5814	0.018840827
54	0x3c751ff0	0.014961228
55	0xbdbb723b	-0.09152647
56	0x3d0f9a76	0.035059415
57	0x3d0670d6	0.032822452
58	0xbd43ff53	-0.047850918
59	0xbd4aa520	-0.04947388
60	0xbc61aab0	-0.013773605
61	0x3dc38ca1	0.09548307
62	0xbc914438	-0.017732725
63	0x3c6db480	0.014508367
64	0x3bb94060	0.005653426
65	0x3c980fe8	0.018562272
66	0x3d7cede6	0.061750315
67	0xbdc6eb05	-0.09712795
68	0x3d041d3a	0.032254435
69	0xbcdaab48	-0.026693001
70	0x3d7416a6	0.05959191
71	0x3d9d625d	0.07684777
72	0x3d3da5c6	0.046300672
73	0xbd7802b0	-0.060549438
74	0xbdab7ef8	-0.08373827
75	0x3d013452	0.031544037
76	0xbd64522a	-0.05574242
77	0xbc348168	-0.011017181
78	0x3d49b6d2	0.049246617
79	0xbd1807a4	-0.03711666
80	0xbd5ff8c3	-0.054680597
81	0x3d9085e1	0.070567854
82	0x3c720380	0.014771342
83	0x3c4998c0	0.012304485
84	0x3d6bb85a	0.05754886
85	0x3cfb565c	0.030680828
86	0x3d53f082	0.051743038
87	0xbbcdffa0	-0.0062865764
88	0xbc8d4120	-0.017242968
89	0xbd432d87	-0.04765084
90	0x3da01d41	0.0781808
91	0x3c657870	0.014005765
92	0x3d4180ee	0.047242098
93	0x3dbe3b79	0.09288687
94	0x3d77b162	0.0604719
95	0x3d61201e	0.05496227
96	0x3d87d111	0.06631673
97	0xbd9a71c6	-0.07541232
98	0x3d8e90eb	0.06961235
99	0xbbae6760	-0.005322382
100	0x3dbcdf0f	0.092222326
101	0xbc779058	-0.015110098
102	0x3d63042a	0.055423893
103	0x3c8132ec	0.015771352
104	0xbccf4fd8	-0.025306627
105	0xbd99d5be	-0.07511471
106	0x3cf4356c	0.02981063
107	0x3da3fae3	0.08006837
108	0x3cef8204	0.029236801
109	0x3bd6e780	0.0065583587
110	0x3d14f4ce	0.036366276
111	0x3d7e9be2	0.06216038
112	0xbd4cf707	-0.05004027
113	0x3cd53c3c	0.026029699
114	0xbd11f7c6	-0.035636686
115	0xbd1c7267	-0.03819504
116	0xbda61a5e	-0.08110498
117	0x3d583632	0.05278606
118	0xbd9afa8e	-0.07567321
119	0x3d2b7082	0.041855343
120	0x3cada6a8	0.021197632
121	0xbd93d25e	-0.07217859
122	0x3d33af76	0.043868504
123	0xbc78b0b0	-0.015178844
124	0x3daa59c1	0.083179004
125	0x3d1acaa6	0.037790917
126	0xbd81b4a4	-0.063332826
127	0x3d88b579	0.06675238
128	0xbd4df4e7	-0.050282385
129	0x3d29c4f2	0.041447587
130	0xbdb8c020	-0.0902102
131	0x3cfc6b54	0.030812897
132	0xbdc8893f	-0.097918026
133	0xbca220a8	-0.019790962
134	0x3d2b6eea	0.041853823
135	0x3d62513a	0.055253245
136	0x3d5a5f66	0.053313635
137	0xbd2012ad	-0.03908031
138	0xbd272a93	-0.040812086
139	0xbd464263	-0.048403155
140	0x3d24ccd2	0.040234394
141	0x3dc5b7d1	0.09654201
142	0xbd061b8a	-0.032741107
143	0xbd4dae60	-0.050215125
144	0x3d76c1c2	0.060243376
145	0xbda05cb5	-0.078301825
146	0x3ce713bc	0.028207652
147	0x3db9afb3	0.09066715
148	0x3dbe6c87	0.09298044
149	0xbc2ca7d0	-0.0105380565
150	0xbda0650a	-0.07831772
151	0x3d5e7976	0.054315053
152	0xbd04fc46	-0.03246715
153	0xbdb5c6fa	-0.088758424
154	0xbd48f6a3	-0.049063336
155	0x3d017446	0.031605028
156	0xbdbbaeab	-0.09164175
157	0xbd8a222e	-0.067448005
158	0xbd3083ad	-0.043094326
159	0xbdacb1e6	-0.08432369
160	0x3dc55aab	0.09636434
161	0x3d70f96a	0.05883161
162	0xbbbf1d80	-0.005832374
163	0xbd82a58c	-0.06379232
164	0x3dbf74c9	0.09348447
165	0x3d60f4d2	0.05492098
166	0xbd3d972d	-0.04628675
167	0xbd62c337	-0.055361953
168	0x3c33eac0	0.010981262
169	0xbd046536	-0.032323085
170	0x3dc136b9	0.09434266
171	0x3c46a4f0	0.012124285
172	0x3d363a86	0.044489406
173	0x3cac8860	0.021061122
174	0x3dbc22f9	0.09186358
175	0x3db79a23	0.08964946
176	0x3d90515d	0.07046769
177	0x3db4f439	0.08835644
178	0x3da97449	0.08274133
179	0x3db8fe69	0.090329
180	0x3db26e21	0.08712412
181	0xbda366b8	-0.079785764
182	0x3b928830	0.004471801
183	0x3ce3befc	0.02780103
184	0x3d3fa1f6	0.046785317
185	0xbc4cff00	-0.012511969
186	0xbc04ac50	-0.008097723
187	0xbc831bac	-0.016004406
188	0xbda48edb	-0.0803506
189	0x3d5524c2	0.052037008
190	0xbc6ef658	-0.0145851
191	0x3db481f9	0.08813853
192	0xbda72926	-0.08162145
193	0xbcb6472c	-0.022250734
194	0xbd22579d	-0.039634336
195	0x3ca139d4	0.019680895
196	0xbc438b18	-0.011935018
197	0x3d874eb5	0.06606809
198	0xbba3f330	-0.0050033554
199	0x3d9ca871	0.07649315
200	0x3d65a416	0.056064688
201	0x3cd44c74	0.025915362
202	0xbd58840d	-0.05286031
203	0x3d509f32	0.05093307
204	0xbd5f5710	-0.05452639
205	0x3db0d6cf	0.086347215
206	0xbb3238a0	-0.0027194396
207	0x3d61f82a	0.05516831
208	0xbdb59133	-0.08865585
209	0x3be91f60	0.007114336
210	0xbd7cbb87	-0.061702278
211	0xbd6a82aa	-0.057253517
212	0x3d9910d7	0.07473915
213	0xbc5a9f68	-0.0133436695
214	0x3db1d00f	0.08682262
215	0xbdc65245	-0.096836604
216	0x3d7c0c6a	0.061535276
217	0xbd39b79a	-0.04534111
218	0x3da86d51	0.082239754
219	0x3d978d8f	0.07400047
220	0x3da2d261	0.07950283
221	0xbdc7c510	-0.097543836
222	0xbd478b10	-0.048716605
223	0x3cde1484	0.027109392
224	0x3d9935c1	0.07480956
225	0x3c4280b0	0.011871502
226	0x3c92b598	0.017908856
227	0x3b190b60	0.0023352727
228	0xbdcb559a	-0.099284366
229	0xbd6aee83	-0.05735637
230	0xbd0e4dd4	-0.03474219
231	0xbd8fbc45	-0.070183314
232	0x3b8d5e80	0.004314244
233	0xbd02a746	-0.031897806
234	0xbb96b7b0	-0.004599534
235	0xbc82f9f8	-0.015988335
236	0x3d573f4a	0.05255059
237	0x3d9c0f79	0.07620139
238	0xbd2b3a33	-0.04180355
239	0xbd87c9ce	-0.06630288
240	0xbd17020a	-0.03686718
241	0x3cc800f4	0.024414517
242	0xbbe39450	-0.0069451705
243	0x3db6ca05	0.08925251
244	0x3ab93280	0.001412943
245	0xbcf22ecc	-0.02956333
246	0xbd83f8e2	-0.06443955
247	0xbbbecba0	-0.005822614
248	0xbd4ce147	-0.05001953
249	0x3dba2d99	0.09090728
250	0x3da7a8c9	0.0818649
251	0x3db1eb09	0.086874075
252	0xbd1db207	-0.03849986
253	0xbc1426f0	-0.009042487
254	0xbcf28034	-0.029602148
255	0xbdc348d5	-0.09535376

lstm1.bias_ih_l0 f4 [400]
0	0x3db446c1	0.08802558
1	0xbd831e18	-0.06402224
2	0xbd8f52a3	-0.069981836
3	0xbd2cc7f7	-0.04218289
4	0x3d901259	0.070347495
5	0x3d2c8a7e	0.042124264
6	0xbd9d6ae6	-0.07686405
7	0xbdad39b8	-0.084582746
8	0xbbfccf00	-0.007715106
9	0xba304100	-0.0006723553
10	0xbca36d18	-0.01994948
11	0x3d943341	0.072363384
12	0x3d5809e6	0.052743815
13	0x3d8a6373	0.0675725
14	0xbd25b66a	-0.040457167
15	0xbc45ca90	-0.01207222
16	0xbd8c7b1d	-0.068594195
17	0x3bf5dfa0	0.007503465
18	0x3d96f945	0.07371763
19	0x3d796e22	0.060896046
20	0xbd9a60f6	-0.07538025
21	0xbcaa7848	-0.020809308
22	0xbd99d016	-0.07510392
23	0x3d096e22	0.033552296
24	0xbc8c9240	-0.017159581
25	0xbd47b640	-0.04875779
26	0x3c8d1c6c	0.017225467
27	0x3d36c3fe	0.044620506
28	0xbb084200	-0.0020791292
29	0x3dad1b65	0.08452491
30	0x3c8f0f2c	0.01746329
31	0xbd859f34	-0.06524506
32	0xbdc05393	-0.093909405
33	0xbdadeb4a	-0.084921435
34	0xbd38b3a7	-0.045093205
35	0xbccc4df8	-0.024939522
36	0x3dae4837	0.08509868
37	0x3cd9c5b4	0.02658353
38	0xbd93ac0b	-0.07210549
39	0xbda7d2b8	-0.08194488
40	0xbd5d26a3	-0.053991925
41	0xbda0ef1d	-0.07858107
42	0xbda85df3	-0.082210444
43	0xbdbc864f	-0.09205305
44	0x3b855220	0.004068628
45	0xbc88ecec	-0.016714536
46	0x3adf5280	0.0017038137
47	0x3cf8b624	0.030360289
48	0x3d739cea	0.059475817
49	0xbd5b92da	-0.053606845
50	0xbcfbb954	-0.03072802
51	0xbc91e348	-0.017808571
52	0xbcc57bc0	-0.02410686
53	0x3b72af60	0.0037030801
54	0xbc6bdad0	-0.014395431
55	0xbcc96acc	-0.024587058
56	0x3cafd488	0.021463647
57	0x3d8555d9	0.06510515
58	0x3cb3a308	0.021928325
59	0x3d540fb2	0.05177278
60	0x3cb7cf4c	0.022437714
61	0xbc09aef0	-0.008403525
62	0xbd92d3ca	-0.07169302
63	0xbdc4e66f	-0.09614264
64	0x3c3ae298	0.011406563
65	0xbd8ac65e	-0.06776117
66	0xbb99a9d0	-0.0046894327
67	0x3d6cdce2	0.057827838
68	0x3dc72fa9	0.09725887
69	0x3d2c01ee	0.041994028
70	0xbdac55d5	-0.08414809
71	0x3aa35b40	0.0012463108
72	0x3dbf8a39	0.09352536
73	0xbcbf47ec	-0.023349725
74	0x3db6cb91	0.08925546
75	0xbc319590	-0.010838881
76	0x3d8ef349	0.06979997
77	0x3d47f092	0.04881341
78	0xbc9e874c	-0.019351624
79	0xbcf8b378	-0.030359015
80	0x3ae72cc0	0.0017637238
81	0xbdc02a67	-0.093830876
82	0x3d978ee5	0.07400302
83	0x3c340210	0.01098682
84	0x3cee2824	0.029071875
85	0x3cac6508	0.02104427
86	0x3d9c64e1	0.076364286
87	0xbcf79598	-0.030222699
88	0x3a8e9880	0.0010879189
89	0xbdc6dda8	-0.09710246
90	0x3da6f455	0.081520714
91	0xbd0641a6	-0.03277745
92	0xbd7d6b53	-0.06186993
93	0xbd6997f7	-0.05702969
94	0x3cbee414	0.023302115
95	0xbcf7c718	-0.030246302
96	0xbd56fda0	-0.05248797
97	0x3c547a70	0.0129686445
98	0xbd8e05b6	-0.06934683
99	0x3d9b2cdd	0.07576916
100	0xbc5b5570	-0.013387069
101	0xbd139f24	-0.03604044
102	0x3d910b3d	0.07082222
103	0x3da63ca1	0.08117033
104	0xbd3b0910	-0.04566294
105	0xbb565260	-0.0032702908
106	0x3cc67508	0.024225727
107	0xbd7f1817	-0.062278833
108	0xbc0cf158	-0.008602463
109	0x3cbde0f8	0.023178563
110	0x3d5c2712	0.053748198
111	0xbdb8cced	-0.090234615
112	0x3d54491e	0.051827542
113	0xbd5d6d13	-0.0540591
114	0x3d91e5ad	0.07123885
115	0xbd7d36c7	-0.061819818
116	0x3d79ac06	0.06095507
117	0x3c269800	0.010168076
118	0x3d78a6a6	0.060705803
119	0xbd773ca3	-0.060360562
120	0x3d137a46	0.03600528
121	0xbdc0cda5	-0.094142236
122	0xbd573c77	-0.0525479
123	0x3dad6b5f	0.08467745
124	0xbd080996	-0.033212267
125	0xbcbe626c	-0.02324029
126	0x3cddc9ac	0.027073704
127	0x3d098fb6	0.03358432
128	0x3c75bc10	0.014998451
129	0xbd68f52d	-0.056874443
130	0xbda6535d	-0.08121369
131	0x3bc54ba0	0.006020978
132	0x3cf7fda4	0.030272312
133	0xbdb0fc93	-0.08641925
134	0x3da3fcef	0.08007228
135	0x3c864a0c	0.01639273
136	0x3db47f37	0.08813327
137	0xbd996c03	-0.07491305
138	0xbdb8083f	-0.08985948
139	0x3c67e7a8	0.014154352
140	0x3d62b0da	0.05534444
141	0x3c0ca250	0.00858362
142	0xbdc64372	-0.09680833
143	0x3dba26c3	0.090894245
144	0x3c0ce168	0.008598663
145	0x3b7ae400	0.0038282871
146	0xbd9b0e66	-0.07571106
147	0x3ca0a934	0.019611932
148	0x3d856ee9	0.06515295
149	0xbd0342a4	-0.032045975
150	0xbcff4374	-0.031160094
151	0xbb372660	-0.0027946457
152	0xbd6ecec0	-0.05830264
153	0xbcf7ebec	-0.030263864
154	0x3db9b36b	0.090674244
155	0x3d9f7d91	0.07787622
156	0x3d19f47e	0.03758668
157	0x3cb080f4	0.021545865
158	0xbd16d7a6	-0.036826752
159	0x3d786db6	0.060651504
160	0xbda3c67e	-0.07996844
161	0xbd3b55e3	-0.045736205
162	0x3d3a3982	0.045465
163	0xbd818115	-0.063234486
164	0x3d13bc22	0.03606809
165	0xbd74964d	-0.05971365
166	0xbd4d4b17	-0.05012044
167	0xbd84ea32	-0.06489982
168	0x3dbd4493	0.09241595
169	0xbdc5a64d	-0.0965086
170	0x3d124e1a	0.035719015
171	0x3bac2360	0.0052532405
172	0x3ca84aac	0.020543419
173	0xbdc0323b	-0.09384581
174	0xbd429620	-0.04750645
175	0x3d9134b5	0.07090131
176	0xbd83e3ed	-0.06439958
177	0x3d69374a	0.056937493
178	0x3d461fca	0.04837016
179	0x3d96deb1	0.07366694
180	0xbcd7b198	-0.0263298
181	0x3d3e7082	0.046494015
182	0x3d96e94b	0.07368716
183	0x3da0003d	0.078125454
184	0xbda46420	-0.0802691
185	0x3d84cb5f	0.064841025
186	0x3d8aceeb	0.06777748
187	0xbd2c5e03	-0.042081844
188	0x3db6b969	0.08922083
189	0xbb8dc050	-0.004325904
190	0x3daf3839	0.085556455
191	0x3d22832e	0.039675884
192	0x3d8e0d31	0.0693611
193	0xbb6a3b60	-0.0035740957
194	0xbd8f926d	-0.070103504
195	0x3d6fd912	0.058556624
196	0xbd79d973	-0.06099839
197	0xbd80f14a	-0.06296022
198	0xbdabecbd	-0.083947636
199	0x3d31f2b6	0.043444358
200	0x3ae91000	0.0017781258
201	0x3d0b575a	0.03401885
202	0x3ce74de4	0.028235383
203	0x3d4f44ce	0.050602727
204	0xbd9f5882	-0.077805534
205	0xbca254a0	-0.019815743
206	0x3cedd484	0.029032
207	0xbc185680	-0.009297967
208	0xbd4e970d	-0.050437022
209	0xbdb6d400	-0.089271545
210	0x3d08b40a	0.033374824
211	0xbd869450	-0.06571257
212	0xbc05fa98	-0.008177422
213	0x3d42520e	0.047441535
214	0x3c9dbd98	0.019255444
215	0x3ba0c9e0	0.004906878
216	0xbcf620cc	-0.030044936
217	0xbdbdc840	-0.0926671
218	0x3d900639	0.07032437
219	0x3d7eb782	0.062186725
220	0xbda0ba5a	-0.07848044
221	0x3cff78bc	0.0311855
222	0xbc5ce6d8	-0.013482772
223	0xbd3104a3	-0.043217313
224	0x3d56b4da	0.052418567
225	0x3dadb839	0.08482403
226	0xbd9e5803	-0.07731631
227	0x3da9f699	0.08298988
228	0xb9bebd00	-0.0003638044
229	0x3d5c3da2	0.053769715
230	0x3da82a01	0.082111366
231	0x3d41209e	0.047150247
232	0x3d1ebbbe	0.038753264
233	0x3d0a5882	0.033775814
234	0x3b5f2260	0.0034047589
235	0x3bc97320	0.006147757
236	0x3d3f5e12	0.04672057
237	0x3dbfdd61	0.093683966
238	0x3d58c98a	0.052926578
239	0xbd919ebb	-0.071103536
240	0x3cde5d44	0.027144082
241	0x3d27e502	0.040989883
242	0x3dacccdb	0.084375106
243	0xbd4e54ed	-0.05037396
244	0xbd2366e7	-0.039893057
245	0xbdb8ccb3	-0.09023418
246	0x3d1a78e6	0.037712954
247	0xbd520260	-0.051271796
248	0x3d9d6541	0.07685328
249	0x3c7e0ed0	0.015506461
250	0x3db4be51	0.088253625
251	0xbbc56c80	-0.006024897
252	0x3d95f115	0.073213734
253	0xbb197b00	-0.002341926
254	0xbda170e2	-0.07882859
255	0x3d711a7a	0.05886314

lstm1.bias_hh_l0 f4 [400]
0	0x3c980dec	0.018561326
1	0xbd7df77a	-0.06200359
2	0x3dc78f89	0.09744174
3	0x3dc3b2f1	0.09555615
4	0x3b071ca0	0.0020616427
5	0xbd629f7a	-0.05532787
6	0xbdc744d3	-0.09729924
7	0x3d96e9f7	0.07368844
8	0xbc15f4d0	-0.009152606
9	0x3c9145a0	0.017733395
10	0xbd66bec0	-0.056334257
11	0x3a6abf00	0.0008954853
12	0x3d95afa9	0.07308895
13	0x3dbed7b1	0.093184836
14	0x3d7097de	0.05873858
15	0x3da7f3a1	0.082007654
16	0xbd2aee03	-0.041730892
17	0xbd6d0670	-0.057867467
18	0x3da33fdf	0.07971167
19	0xbd1d073a	-0.03833697
20	0x3d07414a	0.03302125
21	0xbda694e5	-0.08133868
22	0xbd9e6eca	-0.07735975
23	0x3db1207f	0.08648776
24	0x3d9edfad	0.077575065
25	0xbd8786ee	-0.06617533
26	0x3b9b4130	0.0047379956
27	0x3d41a36e	0.047275
28	0xbcb35f0c	-0.021895908
29	0x3da2fc5d	0.07958291
30	0x3dcbd2f1	0.09952343
31	0x3d3184d2	0.043339558
32	0x3dbf6d03	0.09346964
33	0xbd0f92b0	-0.035052
34	0x3dc1e9e9	0.09468443
35	0xbcddd058	-0.027076885
36	0xbdc8ea00	-0.09810257
37	0xbc5e00a8	-0.013549961
38	0xbdb317cd	-0.08744774
39	0xbd8425d0	-0.06452525
40	0x3d0342f2	0.032046266
41	0x3d83945f	0.06424784
42	0x3d14d7b2	0.036338516
43	0x3db402bb	0.08789583
44	0x3c97df00	0.018538952
45	0x3da38f81	0.079863556
46	0xbd66720d	-0.05626111
47	0x3d729f92	0.05923421
48	0xbd22a4e3	-0.03970803
49	0x3d00cab6	0.03144332
50	0xbd60a43d	-0.05484413
51	0x3da6b7b7	0.081405096
52	0x3dca9831	0.098923095
53	0x3db54541	0.088511
54	0x3da81de5	0.08208827
55	0xbdbe4fe5	-0.092925824
56	0x3b9d18d0	0.0047942176
57	0x3d62988e	0.05532127
58	0x3cb1a0d4	0.021683134
59	0x3d02f35a	0.03197036
60	0xbcfd43ac	-0.030916058
61	0x3bb98980	0.005662143
62	0xbdcba433	-0.09943428
63	0x3a034b00	0.0005008429
64	0xba0ec700	-0.00054465234
65	0x3dae23cf	0.08502924
66	0x3d09737e	0.033557408
67	0xbda3ca80	-0.07997608
68	0x3d6dab1e	0.05802452
69	0xbdb89980	-0.09013653
70	0xbd8d380e	-0.06895457
71	0x3cab6514	0.020922221
72	0xbd48b927	-0.0490047
73	0xba8bf180	-0.0010676831
74	0x3d0b8bf2	0.03406901
75	0x3cb665ec	0.022265397
76	0x3d983825	0.07432584
77	0xbd3868da	-0.04502187
78	0x3d56b416	0.052417837
79	0xbdb0d993	-0.08635249
80	0xbcc5c194	-0.024140157
81	0xbd7b30e0	-0.061325908
82	0xbdc6792f	-0.09691083
83	0x3d2a3c2a	0.041561283
84	0xbc2e7d18	-0.010649942
85	0x3bcd3950	0.0062629357
86	0xbcca5648	-0.024699345
87	0x3dccae41	0.09994174
88	0xbd897bae	-0.06713043
89	0xbd6b9243	-0.057512533
90	0x3dc27649	0.09495217
91	0x3c63c030	0.013900802
92	0xbbd08c80	-0.006364405
93	0x3d773a26	0.06035819
94	0xbd3ee930	-0.046609104
95	0x3d4d0e96	0.05006274
96	0x3dbdaa47	0.092609935
97	0x3d43a786	0.047767185
98	0xbd2cad0d	-0.04215722
99	0x3cf353ec	0.029703103
100	0x3d263296	0.040575586
101	0x3d9a72f9	0.075414605
102	0xbd948025	-0.07251004
103	0xbc2aba80	-0.010420442
104	0xbb201c40	-0.00244309
105	0x3db4988f	0.08818161
106	0xbd93aa2b	-0.07210191
107	0xbcbdb6b4	-0.023158409
108	0x3c2acba8	0.010424532
109	0x3d915c79	0.07097716
110	0xbbc32750	-0.005955614
111	0x3d92c809	0.0716706
112	0xbc111810	-0.008855835
113	0xbceb5458	-0.028726742
114	0x3d8bbc1f	0.068229906
115	0xbd05cfe0	-0.03266895
116	0xbd96fd2e	-0.07372509
117	0x3d17f366	0.037097357
118	0xbd94066e	-0.07227789
119	0xbd45be00	-0.0482769
120	0x3d82280b	0.06355294
121	0x3d962729	0.07331688
122	0x3d811af1	0.06303967
123	0x3d0cdb0e	0.034388594
124	0xbd1c0a8d	-0.038096
125	0xbd198750	-0.03748256
126	0x3c4285f0	0.0118727535
127	0x3db72033	0.089416884
128	0x3d31c772	0.043403096
129	0xbc2db800	-0.010602951
130	0x3c064a98	0.0081964955
131	0xbdaa140b	-0.08304604
132	0x3d32c1c6	0.043641828
133	0xbd22e547	-0.039769437
134	0x3d3eeb3e	0.046611063
135	0x3c033d98	0.008010291
136	0x3d79821a	0.06091509
137	0xbd2fcc47	-0.042919423
138	0xbd1901da	-0.03735528
139	0xbccae4b4	-0.024767257
140	0x3dbeee91	0.09322847
141	0xbdbf0eeb	-0.09329017
142	0x3d8a48f1	0.06752194
143	0xbd24cba7	-0.04023328
144	0xbd973c4e	-0.07384549
145	0xbd646227	-0.055757668
146	0xbb058b60	-0.0020377263
147	0x3db41341	0.08792735
148	0x3b4adca0	0.0030954257
149	0x3da670d3	0.08126988
150	0x3cbbd7cc	0.022930048
151	0x3bce7800	0.006300926
152	0x3ca2a734	0.01985512
153	0xbd89852c	-0.06714854
154	0xbbf85550	-0.0075785294
155	0xbd80bc04	-0.06285861
156	0x3c06ea40	0.0082345605
157	0xbd7686fd	-0.06018733
158	0xbcfe2d40	-0.031027436
159	0x3b2b0660	0.002609633
160	0xbd61ddfa	-0.055143334
161	0xbcbad748	-0.022807732
162	0x3c361d18	0.011115335
163	0x3cf2d1bc	0.029641025
164	0xba33ff00	-0.0006866306
165	0xbda019aa	-0.07817395
166	0xbc8e4aec	-0.01736971
167	0x3d476902	0.048684128
168	0x3db34b7b	0.08754631
169	0xbd361a40	-0.044458628
170	0x3db879e3	0.09007623
171	0x3d755e6e	0.05990451
172	0x3c939280	0.018014193
173	0xbda880f2	-0.08227719
174	0x3ba48d30	0.0050217137
175	0x3a8736c0	0.0010315999
176	0x3ce40604	0.0278349
177	0x3da81641	0.082073696
178	0x3d9531a3	0.07284858
179	0x3d228116	0.039673887
180	0x3d9c00db	0.07617351
181	0xbd188d7c	-0.037244305
182	0x3d8e94c1	0.06961966
183	0xbdca38b5	-0.09874097
184	0xbd8287ac	-0.063735336
185	0xbd2dcb8d	-0.04243045
186	0xbcf09674	-0.029368617
187	0x3da01ff3	0.07818594
188	0xbd9d2340	-0.07672739
189	0xbc38f658	-0.011289202
190	0xbd89171e	-0.066938624
191	0x3cbe6ce8	0.02324529
192	0x3cebb9cc	0.028775118
193	0xbd301290	-0.042986453
194	0x39e03a00	0.00042767823
195	0xbccebe80	-0.025237322
196	0x3cd16784	0.025562055
197	0x3b806850	0.003918685
198	0xbdbb40ad	-0.09143195
199	0xbd0924ba	-0.03348229
200	0xbcef31ec	-0.02919861
201	0xbdae0f72	-0.0849904
202	0xbd8d38ad	-0.06895576
203	0x3d673d7a	0.056455113
204	0xbd52444a	-0.051334657
205	0xbd119fac	-0.035552666
206	0xbc82c8ac	-0.015964828
207	0xbd5539dd	-0.052057136
208	0x3d55e346	0.052218698
209	0x3d0eafbe	0.03483557
210	0x3dc6c4c3	0.09705498
211	0x3da4a5e3	0.08039453
212	0x3dc0f9e1	0.094226606
213	0x3cb3bd80	0.021940947
214	0xbd659ed7	-0.056059685
215	0x3d99a7e1	0.075027235
216	0x3c9bc088	0.019012704
217	0x3dbad81b	0.0912325
218	0x3b6e5960	0.003636919
219	0x3dad16af	0.08451592
220	0x3a3b6980	0.00071492046
221	0x3dafbc49	0.085808344
222	0xbc83a0f8	-0.016067967
223	0xbc0ee918	-0.008722566
224	0x3dca6ab9	0.09883637
225	0xbd20bdda	-0.039243557
226	0xbcea07b8	-0.028568134
227	0xbcfa3b40	-0.03054583
228	0xbdb3fed8	-0.08788842
229	0xbd88acb2	-0.06673564
230	0x3db02eb1	0.08602656
231	0x3d5783c2	0.05261589
232	0xbdaa6680	-0.083203316
233	0x3b2a0860	0.0025944933
234	0x3d6ee8ea	0.058327593
235	0x3c4f3b68	0.012648441
236	0xbcd2004c	-0.025634907
237	0x3c70d158	0.014698349
238	0x3d30f652	0.04320366
239	0xbc550418	-0.013001464
240	0xbd430b8a	-0.047618426
241	0x3cb933c8	0.022607699
242	0xbd678aed	-0.056528974
243	0x3daa717d	0.083224274
244	0x3d3eb0d2	0.046555348
245	0xbc11b090	-0.008892193
246	0xbd866182	-0.06561567
247	0x3d328f16	0.04359349
248	0x3c9bb318	0.019006297
249	0xbb124e40	-0.0022324473
250	0x3c8edd6c	0.017439567
251	0xbc9a6f60	-0.018851936
252	0x3dad44a7	0.0846036
253	0x3d2f54a6	0.042805336
254	0x3d847279	0.064671464
255	0xbba8dca0	-0.0051532537

linear.weight f4 [1, 100]
0	0x3d8c119f	0.068392985
1	0x3da79465	0.08182601
2	0xbd4608f0	-0.048348367
3	0xbb655d60	-0.0034998283
4	0xbad62d40	-0.001634039
5	0x3b3f9400	0.0029232502
6	0xbd783cfd	-0.060605038
7	0xbdc153c5	-0.09439806
8	0x3dbf6831	0.09346045
9	0xbb77f940	-0.0037837774
10	0xbd54b053	-0.05192597
11	0xbd2c46c7	-0.042059686
12	0xbd8ae194	-0.06781307
13	0xbe4e4cfa	-0.20146552
14	0xbe68fb9b	-0.2275223
15	0xbd3f9f2a	-0.04678265
16	0xbd13cac0	-0.03608203
17	0x3d2db432	0.042408176
18	0xbd06290a	-0.03275398
19	0x3df66340	0.12030649
20	0x3d8e7a79	0.069569536
21	0xbd05339c	-0.03251992
22	0xbdc1c5d8	-0.09461564
23	0x3da089e7	0.07838803
24	0x3b3dd9c0	0.00289689
25	0xbdc4999b	-0.095996104
26	0x3c0d9a10	0.008642688
27	0xbe542245	-0.20716198
28	0x3d9ac505	0.0755711
29	0x3d9cff45	0.07665876
30	0xbe834503	-0.2563859
31	0x3e95c933	0.29255065
32	0x3d3e1bb2	0.04641313
33	0x3ca1cb4c	0.01975026
34	0xbdb04b63	-0.08608129
35	0xbd14b2f6	-0.036303483
36	0xbe2d6ee6	-0.16936836
37	0x3dcb1881	0.09916783
38	0xbe0b0f3c	-0.1358003
39	0x3d155222	0.03645528
40	0x3d8ee1a9	0.06976635
41	0x3e1701ad	0.14746733
42	0xbc4ca568	-0.012490608
43	0x3d9bf33b	0.07614752
44	0xbda30a4d	-0.07960949
45	0x3c592230	0.01325278
46	0x3e590c33	0.2119606
47	0x3db96145	0.09051756
48	0x3e48e5dc	0.19618934
49	0xbe61746a	-0.22017065
50	0xbcc9a954	-0.024616875
51	0x3e4378ca	0.19089046
52	0xbd2792f3	-0.040911626
53	0x3e8f501f	0.27990815
54	0xbd0d7c2a	-0.03454224
55	0x3c8e0b18	0.017339274
56	0xbe3f5386	-0.18684205
57	0xbe240d3b	-0.16020672
58	0xbcf2cae0	-0.029637754
59	0x3d30c50e	0.043156676
60	0x3d772e66	0.060346983
61	0xbd1d6127	-0.03842273
62	0xbb97b020	-0.00462915
63	0xbdd91b62	-0.10600926
64	0x3d961e89	0.07330043
65	0xbda21b98	-0.07915419
66	0xbcc51a98	-0.024060532
67	0x3d4a4396	0.04938086
68	0x3dae4b9d	0.08510516
69	0xbcb78dcc	-0.022406481
70	0x3dbdccb1	0.092675574
71	0xbdd4559c	-0.10367891
72	0x3ce43ac4	0.027860053
73	0x3d21d27a	0.039507367
74	0x3c3f0ac0	0.011660278
75	0x3c9d72d4	0.019219793
76	0xbdab1658	-0.08353871
77	0x3b770160	0.0037690029
78	0x3e0f07ac	0.1396777
79	0x3e4add88	0.1981107
80	0x3dc74cd7	0.09731453
81	0xbc5c0928	-0.013429917
82	0xbd78ee90	-0.060774386
83	0x3bd78930	0.0065776333
84	0x3db0e7b5	0.086379446
85	0xbb6f4760	-0.0036511049
86	0xbd11bc26	-0.035579823
87	0x3d9c7b35	0.076406874
88	0xbc6fdfa8	-0.014640726
89	0x3d8fdb29	0.07024223
90	0x3d0f9b2a	0.035060085
91	0xbd172be0	-0.036907077
92	0xbd67f09a	-0.05662594
93	0x3e62138a	0.22077766
94	0xbcc338d4	-0.023830809
95	0x3cc544e8	0.024080709
96	0xbe855480	-0.2604103
97	0xbd61d117	-0.055131044
98	0x3da8d8c1	0.082444675
99	0xbd216480	-0.039402485
